rlcard/models/pretrained/leduc_holdem_nfsp_pytorch/model.pth (torch_old, 529543 bytes, 60 tensors)

fc_layers.1.weight f4 [34]
0	0x3fbe806c	1.4882941
1	0x3ea6958f	0.3253598
2	0x409f61e4	4.9806995
3	0x3fefc84a	1.8732998
4	0xbd1a05ce	-0.037603192
5	0x3f952e89	1.1654826
6	0x3f800000	1.0
7	0x3ea4a206	0.32154864
8	0x3f800000	1.0
9	0xbf8d326d	-1.1031014
10	0x3f800000	1.0
11	0x401f10f7	2.4854105
12	0x3f800000	1.0
13	0x402b3603	2.6751716
14	0x3f800000	1.0
15	0xc0294f97	-2.6454828
16	0x3f800000	1.0
17	0x3f800000	1.0
18	0x3f800000	1.0
19	0x3f800000	1.0
20	0x3f800000	1.0
21	0xbebe1468	-0.37124944
22	0x3f800000	1.0
23	0xbfcdada4	-1.6068616
24	0x3f800000	1.0
25	0x40237661	2.5541003
26	0x3f800000	1.0
27	0x40311f89	2.7675498
28	0x3f800000	1.0
29	0x3fae9421	1.3638955
30	0x3f800000	1.0
31	0x3f800000	1.0
32	0x3f800000	1.0
33	0x3f800000	1.0

fc_layers.1.bias f4 [34]
0	0x3f0df9e5	0.55459434
1	0x3ff0fdc1	1.882744
2	0xbf6b37d3	-0.91882056
3	0x400a92bd	2.1652062
4	0x3f5f8977	0.8731913
5	0xbecc1664	-0.39860833
6	0x3f989747	1.1921166
7	0xc0018ace	-2.024097
8	0xbf9110eb	-1.1333288
9	0x402d3da0	2.7068863
10	0x3f4940c4	0.7861445
11	0x3fed8f50	1.855936
12	0x3f34bb52	0.7059833
13	0x3fc3309a	1.5249207
14	0xbf036695	-0.513284
15	0xbfd0fa4b	-1.6326383
16	0xbf361c51	-0.7113696
17	0xbf9ab4b5	-1.2086397
18	0xbf83028e	-1.0235155
19	0x3f386597	0.72030014
20	0xbea7e7e6	-0.32794112
21	0xc035c146	-2.8399215
22	0x3f19950c	0.5999305
23	0x403c686c	2.9438734
24	0x3f95c313	1.1700157
25	0x3ffed66c	1.9909186
26	0xbf4af6aa	-0.7928263
27	0x4060f68b	3.5150478
28	0x3f5a4b4a	0.8527113
29	0xc007a95d	-2.119712
30	0x3e864547	0.2622473
31	0xbf800a69	-1.0003177
32	0x3f4f1e6a	0.80905783
33	0xbf8f8354	-1.1211953

fc_layers.1.running_mean f4 [34]
0	0x3eae0e0b	0.3399509
1	0x3ea63a10	0.32466173
2	0x3eabb7e5	0.33538738
3	0x3e1959c2	0.14975646
4	0x3e0f8d51	0.14018752
5	0x3e105e81	0.1409855
6	0x00000000	0.0
7	0x3f25216b	0.64504117
8	0x00000000	0.0
9	0x3e3d3fa2	0.18481305
10	0x00000000	0.0
11	0x3e169914	0.14706832
12	0x00000000	0.0
13	0x3c0441c5	0.008072321
14	0x00000000	0.0
15	0x3c75d83b	0.015005167
16	0x00000000	0.0
17	0x00000000	0.0
18	0x00000000	0.0
19	0x00000000	0.0
20	0x00000000	0.0
21	0x3f25216b	0.64504117
22	0x00000000	0.0
23	0x3e3d3fa2	0.18481305
24	0x00000000	0.0
25	0x3e169914	0.14706832
26	0x00000000	0.0
27	0x3c0441c5	0.008072321
28	0x00000000	0.0
29	0x3c75d83b	0.015005167
30	0x00000000	0.0
31	0x00000000	0.0
32	0x00000000	0.0
33	0x00000000	0.0

fc_layers.1.running_var f4 [34]
0	0x3e65b475	0.2243212
1	0x3e606fb5	0.21917613
2	0x3e6441cf	0.22290729
3	0x3e022193	0.1270812
4	0x3df69d9d	0.12041781
5	0x3df83ee2	0.12121369
6	0x00000004	6e-45
7	0x3e6a92cf	0.22907566
8	0x00000004	6e-45
9	0x3e1a4e16	0.1506885
10	0x00000004	6e-45
11	0x3e00bd7e	0.12572286
12	0x00000004	6e-45
13	0x3c03130d	0.0080001475
14	0x00000004	6e-45
15	0x3c724194	0.014786143
16	0x00000004	6e-45
17	0x00000004	6e-45
18	0x00000004	6e-45
19	0x00000004	6e-45
20	0x00000004	6e-45
21	0x3e6a92cf	0.22907566
22	0x00000004	6e-45
23	0x3e1a4e16	0.1506885
24	0x00000004	6e-45
25	0x3e00bd7e	0.12572286
26	0x00000004	6e-45
27	0x3c03130d	0.0080001475
28	0x00000004	6e-45
29	0x3c724194	0.014786143
30	0x00000004	6e-45
31	0x00000004	6e-45
32	0x00000004	6e-45
33	0x00000004	6e-45

fc_layers.2.weight f4 [128, 34]
0	0x4001efd4	2.030263
1	0x3f48e303	0.7847139
2	0xc02e696a	-2.725184
3	0xbe822a84	-0.25423062
4	0xbf04d5e1	-0.51888853
5	0xbfa0732a	-1.2535145
6	0x3fb9faa3	1.4529613
7	0xbf0e5781	-0.5560227
8	0xbfbf01ca	-1.4922421
9	0x40017993	2.0230453
10	0x3f7085a4	0.9395392
11	0xbfbb607b	-1.4638819
12	0x3f979e99	1.1845275
13	0xbd3241fc	-0.04351996
14	0xbef8f545	-0.48624626
15	0xc04c7456	-3.1946006
16	0xbf8ce0e1	-1.1006128
17	0xbfb17f78	-1.3867025
18	0xbfa2872f	-1.2697505
19	0x3f567ad8	0.83781195
20	0x3c16c4b1	0.009202168
21	0xbfc79daf	-1.5594996
22	0x3f6e751d	0.9314745
23	0x4010f6e0	2.265068
24	0x3fbac7ea	1.4592259
25	0xbfb493c5	-1.4107596
26	0xbf6ab248	-0.91678286
27	0x3fac2b06	1.345063
28	0x3f94b743	1.1618427
29	0x3e97a676	0.29619187
30	0x3d78e816	0.06076821
31	0xbfdd2591	-1.7277089
32	0x3f571e22	0.84030354
33	0xbfaba16b	-1.3408636
34	0x3ff51551	1.914713
35	0x4004cd3e	2.075027
36	0xbfa58bec	-1.2933326
37	0x400d3273	2.2062042
38	0x3f3785ef	0.7168874
39	0xbae5a679	-0.0017520926
40	0x40003e47	2.003801
41	0xbfc35d93	-1.5262932
42	0xbfdc8ad9	-1.7229873
43	0x3f875f2c	1.0575919
44	0xbecde16e	-0.40211052
45	0x3fe3d09c	1.7798038
46	0x3ff683cb	1.925897
47	0xbee6f32a	-0.45107394
48	0x3fae41d4	1.3613839
49	0x3eae500a	0.3404544
50	0xbfd6e34c	-1.6788116
51	0xbf9730f8	-1.1811819
52	0xbfd83a87	-1.6892861
53	0xbea3be13	-0.31980953
54	0x4016f458	2.3586636
55	0xbfa9967d	-1.324905
56	0x3feee25b	1.8662828
57	0x3fa41a2e	1.282049
58	0x3fa47e05	1.2850958
59	0x3fdbb71b	1.7165254
60	0x3f48f2e3	0.78495616
61	0x404db7ea	3.2143502
62	0x3fa679d7	1.3005933
63	0x3f3a5a7f	0.72794336
64	0x3fc80c7a	1.5628808
65	0xbfd2295c	-1.6418872
66	0xbf2c7479	-0.67365223
67	0xbf913db9	-1.1346961
68	0x3f3ca183	0.7368395
69	0xbf9d3dab	-1.2284445
70	0x3f86f9cf	1.0544986
71	0x3f182ae3	0.5944044
72	0xbdca7d22	-0.098871484
73	0xc0008140	-2.0078888
74	0xbfe9e6d7	-1.8273572
75	0x3eed1f22	0.46312815
76	0x3fe55451	1.7916356
77	0xbfd7608c	-1.6826339
78	0xbfa715e2	-1.3053553
79	0x3e106a45	0.14103039
80	0xbfd734b3	-1.6812958
81	0xbfe405ea	-1.7814305
82	0x3f7d1a8d	0.9886864
83	0xc03faf1b	-2.9950626
84	0x3fde1506	1.7350166
85	0x3fca1ab4	1.5789399
86	0x3fc5e058	1.5459089
87	0xbfa9ce64	-1.326611
88	0x3eff29b2	0.49836498
89	0x3f5c16ae	0.85972106
90	0xbfea214a	-1.8291409
91	0xbfa71a2b	-1.3054861
92	0xbfb518ea	-1.4148228
93	0x3ed1a8f4	0.40949214
94	0x3f996f23	1.1987041
95	0xbfe8a306	-1.8174751
96	0xbfd0b903	-1.6306461
97	0x4002c8c1	2.043503
98	0xbfe0e1d7	-1.7568921
99	0x3feb1fb6	1.8369052
100	0xbf873f30	-1.0566158
101	0x3fc230bd	1.5171124
102	0x3f8420ac	1.0322471
103	0xbe6e6e52	-0.23284271
104	0xbed13f6a	-0.40868694
105	0x3f8ac448	1.084115
106	0x3fa2b836	1.2712467
107	0xbeff812d	-0.4990324
108	0x3fee96f7	1.8639821
109	0xbf8a70a0	-1.081562
110	0xbfed463a	-1.8537056
111	0x3fa016c0	1.2506943
112	0x3f996810	1.1984882
113	0x3f0fb6a3	0.56138057
114	0x400d54bf	2.2082975
115	0x3f58c166	0.846701
116	0xbf4c8b9a	-0.79900515
117	0x3f62fb6b	0.88664883
118	0xc002557f	-2.0364683
119	0xbfc647d3	-1.5490669
120	0xbff40311	-1.9063436
121	0x3f9a9b06	1.2078559
122	0xbf46fce3	-0.77729625
123	0xbf6922ed	-0.9106892
124	0x4007362d	2.1126816
125	0x3fa997fc	1.3249507
126	0x3fd99a6d	1.7000252
127	0x3f01f47d	0.50763685
128	0xbf4bb389	-0.79570824
129	0x3f530e47	0.8244366
130	0x3fb57e65	1.4179198
131	0xbf719c47	-0.94379085
132	0x400cdaa0	2.2008438
133	0xc0063890	-2.0972023
134	0x3f737800	0.9510498
135	0xbfc6523a	-1.5493844
136	0x3ed0554b	0.40690073
137	0x3ddefed5	0.10888449
138	0xbeb7a1a5	-0.35865512
139	0x3fe2b386	1.7711036
140	0x3eed2fd6	0.46325558
141	0xbe449534	-0.19197541
142	0x40048c16	2.0710502
143	0xbf08015e	-0.53127086
144	0xbfd5e4ae	-1.6710413
145	0x3fa5918d	1.2935044
146	0x3f5a3e91	0.8525172
147	0xbf749f45	-0.95555526
148	0x400c2a5b	2.1900852
149	0x3f8f3393	1.1187614
150	0xbef52c63	-0.47885427
151	0x3f965189	1.1743633
152	0xbffde705	-1.9836127
153	0xbf8e1f5a	-1.1103318
154	0xbfc0f75a	-1.5075486
155	0x3f23d95e	0.6400355
156	0xbe126187	-0.14295016
157	0xbf7acaa8	-0.9796548
158	0x4008578b	2.1303432
159	0x3fbb9a8b	1.4656538
160	0x3f9b3988	1.2126932
161	0xbf7a4b50	-0.9777117
162	0xbf1f5506	-0.6223911
163	0x402136dc	2.5189734
164	0x3f990815	1.1955591
165	0x3f8a1670	1.0788097
166	0x3ff377c8	1.9020929
167	0xbfecb3f3	-1.8492416
168	0x3f17d656	0.59311426
169	0xbf7bee86	-0.9841083
170	0xbf14118b	-0.5783927
171	0xbf581127	-0.8440117
172	0xbf12ae2b	-0.5729701
173	0x3faa857b	1.3321985
174	0xbeca8129	-0.39551666
175	0xbd9cbe35	-0.076534666
176	0xbfe67bed	-1.8006569
177	0xbe5a082f	-0.21292184
178	0x4029a7c7	2.6508653
179	0xbfd461d3	-1.6592354
180	0xc04e9dfe	-3.228393
181	0xbf15cd5a	-0.58516467
182	0xbf8c32bc	-1.0952983
183	0x3eeb24a9	0.45926407
184	0x4040b861	3.0112536
185	0xbf248442	-0.6426431
186	0x3fb94dbe	1.447685
187	0x40525918	3.2866879
188	0x40484887	3.1294267
189	0xc054acf5	-3.3230565
190	0x403f62d4	2.990407
191	0x3f83b18e	1.028856
192	0xbf9c1fab	-1.2197164
193	0xbfec1c4a	-1.8446133
194	0xc03d0ae1	-2.953789
195	0xbf2d5e2b	-0.67721814
196	0x4059481f	3.395027
197	0xbedda6e5	-0.43291393
198	0xc04fd097	-3.2471063
199	0xbe250c39	-0.16117944
200	0xbf49f2c5	-0.7888606
201	0x4001102d	2.0166123
202	0xc05737f2	-3.3627896
203	0x405d732b	3.4601543
204	0xbe0ad239	-0.13556756
205	0xbf675341	-0.9036141
206	0x3f73dcb5	0.9525865
207	0xbf9554c8	-1.1666498
208	0xbf9f0629	-1.2423755
209	0xbe03df0b	-0.12878053
210	0xbf8f7ee7	-1.1210603
211	0x3fd60fc5	1.6723562
212	0x3f5c45fe	0.860443
213	0xbfede704	-1.8586125
214	0xbf2c8544	-0.6739085
215	0xbf54f24b	-0.8318221
216	0xbfb35e0b	-1.4013075
217	0x3f24e136	0.64406145
218	0x3e3db80c	0.1852724
219	0x3e61842d	0.22023077
220	0x3fa96c84	1.3236241
221	0x3f2a406c	0.6650455
222	0x3f59b90e	0.85047996
223	0xbf2dce49	-0.6789289
224	0xbd0cfb5c	-0.034419402
225	0x3fc0ab47	1.505227
226	0xbfb0ef25	-1.3822981
227	0xbfda9795	-1.7077509
228	0xbf1695f4	-0.5882256
229	0xbf47d301	-0.7805634
230	0x3f30d8bc	0.6908071
231	0x3dc442bf	0.09583043
232	0xbf309c64	-0.68988633
233	0xbd8c5d52	-0.06853737
234	0xbfd8c1f6	-1.6934192
235	0x3f8cbd33	1.0995239
236	0xbf22ca1d	-0.6358965
237	0x3f3563aa	0.708552
238	0xbe9613f1	-0.2931209
239	0x3f49e8a5	0.7887061
240	0x3f95d377	1.1705159
241	0x3f9a9317	1.2076138
242	0x3f6931b5	0.9109147
243	0xbfe4adbc	-1.786552
244	0x3f7da8f3	0.9908592
245	0xbf3cd2dd	-0.7375925
246	0xbf923080	-1.1421051
247	0x3fa8125d	1.3130604
248	0x3f4548d3	0.77064246
249	0x3f4dd073	0.80396193
250	0x3f615923	0.88026637
251	0x3f4d1734	0.8011353
252	0xbecfd667	-0.40593264
253	0x3e687519	0.22700919
254	0xbf72aa24	-0.94790864
255	0xbf74148c	-0.9534385

fc_layers.2.bias f4 [128]
0	0x3ec4e1dc	0.38453567
1	0x4007fc42	2.1247716
2	0x3f1eeff9	0.6208492
3	0xbf20ff4b	-0.62889546
4	0x3f44024e	0.76566017
5	0x3f2ede28	0.68307734
6	0xbe4b1a24	-0.1983419
7	0x3fa8935e	1.3169973
8	0xbf307b1d	-0.68937856
9	0xbe1a2dc2	-0.15056518
10	0x3f4eb31d	0.80742055
11	0x3f25c98b	0.64760655
12	0x3fe7636d	1.8077217
13	0x3f29a8fd	0.6627348
14	0xbcfee857	-0.031116648
15	0xbe7fa71d	-0.24966092
16	0x3f3f9570	0.748374
17	0xbe06d231	-0.13166119
18	0xbfb90023	-1.4453167
19	0x3fe4932e	1.7857416
20	0xbf2c49be	-0.6730002
21	0x4002077f	2.0317075
22	0x3dcea568	0.100901425
23	0xbe5d79c5	-0.21628483
24	0x3f2245a0	0.6338749
25	0xbe76c6da	-0.24099293
26	0xbf1222cb	-0.5708434
27	0xbef5ee0d	-0.4803318
28	0xbebde07c	-0.3708533
29	0x3f0adcbf	0.5424308
30	0x3f03de41	0.5151101
31	0xbf0e1f6c	-0.55516696
32	0xbe942340	-0.28933144
33	0x3e9765be	0.2956981
34	0xc008c6dc	-2.1371374
35	0x3f3f9c8a	0.74848235
36	0xbf231e95	-0.6371854
37	0xbe9c45ac	-0.30521905
38	0xbf38e3fa	-0.72222865
39	0x3f19adb9	0.60030705
40	0xbe387c37	-0.18016134
41	0x3edc58e5	0.4303657
42	0x3f584267	0.8447632
43	0xbfc555d7	-1.5416821
44	0xbf9e41ac	-1.2363791
45	0x3fd81071	1.6880018
46	0xbf12b64d	-0.5730942
47	0x3d98b777	0.07456868
48	0x400d82ec	2.2111158
49	0x3f809fa4	1.0048718
50	0xbe1b21ee	-0.15149662
51	0x3f20eb1e	0.6285876
52	0xbed388f4	-0.41315424
53	0x3eb6857c	0.35648715
54	0x3f867125	1.0503279
55	0xbf9cdf44	-1.2255635
56	0xbfb90cdd	-1.445705
57	0x3dc3ad31	0.09554518
58	0x3ec2ad4e	0.38022846
59	0xbe7f5172	-0.24933413
60	0xbfa25884	-1.2683263
61	0x3f17d80e	0.5931405
62	0x3f1ac86a	0.6046206
63	0xbfca342e	-1.5797174
64	0xbd6a0864	-0.05713691
65	0xc0149124	-2.3213587
66	0x3ebc2bf7	0.36752293
67	0x3ff8fc38	1.9451971
68	0xbd29f5db	-0.04149423
69	0xbf0fe753	-0.5621235
70	0xbfd3e51c	-1.6554294
71	0x3f2f04dd	0.68366796
72	0xc00304de	-2.047172
73	0x3fdfc996	1.7483394
74	0x3f6e7caf	0.93159
75	0x3edeebe4	0.43539345
76	0x3f18f558	0.59749365
77	0xbdf4a62e	-0.11945759
78	0xbf48abb6	-0.7838701
79	0xbeca93c8	-0.39565873
80	0xbfc64f36	-1.5492923
81	0x3f92787a	1.1443017
82	0xbe9fd19b	-0.31214604
83	0x3f78f456	0.9724783
84	0xbeabbb9f	-0.3354158
85	0x3f1d8088	0.6152425
86	0x3f2536c3	0.64536685
87	0x3eaa6f3b	0.33287987
88	0x3e8c13e6	0.2735893
89	0x3f9a87ff	1.2072753
90	0xbf833288	-1.0249796
91	0x3f320e0a	0.6955267
92	0x3d989a12	0.074512616
93	0xbd984448	-0.074348986
94	0x3e4d1c3a	0.20030299
95	0x3f318148	0.6933789
96	0x3f9a3bed	1.2049538
97	0xbe86a4da	-0.26297647
98	0xbee27143	-0.44227037
99	0xbedf094b	-0.43561777
100	0x3f67e329	0.90580994
101	0xc0066b29	-2.1002905
102	0x3e1da2b6	0.153941
103	0x3f15d19c	0.58522964
104	0x3eb3fdf9	0.35154703
105	0x3f0daf4f	0.55345625
106	0xbf30a543	-0.6900217
107	0xbf1e781f	-0.6190204
108	0xbfed5bb9	-1.8543617
109	0x3e8dbab2	0.276815
110	0xbe1a6b94	-0.150801
111	0x3f33e0fd	0.7026518
112	0x3cfb730e	0.03069451
113	0xbf920738	-1.1408453
114	0x3df1aee6	0.11800937
115	0xbf1dddbd	-0.6166647
116	0x3f8b9ac9	1.0906612
117	0x3e1bad93	0.15202932
118	0xbf5c73ab	-0.86113995
119	0xbf6130ac	-0.8796489
120	0x3c7e56fe	0.01552367
121	0xbd951b9d	-0.072806574
122	0xc01f1348	-2.4855518
123	0xbfd356e4	-1.6510892
124	0xbf40c669	-0.7530275
125	0xbf91a9f3	-1.1379989
126	0xbeb30ff5	-0.34973112
127	0x3e2d45a1	0.16921093

fc_layers.4.weight f4 [128, 128]
0	0xbeb4db39	-0.35323504
1	0xbedab482	-0.42715842
2	0xbedeab08	-0.4348986
3	0x3f09dcc4	0.53852487
4	0xbe9a0b1c	-0.300866
5	0xbffa385a	-1.9548447
6	0xbf6d8dd9	-0.9279457
7	0x3e8649ea	0.26228267
8	0xbc1b402e	-0.009475751
9	0x3fe17846	1.761483
10	0xbfbc6589	-1.4718486
11	0xbea66fc2	-0.3250714
12	0x3e5ffa6a	0.21872869
13	0x3f9bd921	1.2175637
14	0xbf3aef8d	-0.73021775
15	0xbf7551cf	-0.95827955
16	0xbf178fed	-0.5920399
17	0xbe34727c	-0.17621797
18	0x3f365518	0.7122359
19	0xbe926761	-0.28594497
20	0xbd51fcd1	-0.051266495
21	0x3bc9f7c4	0.006163569
22	0x3f72405e	0.94629467
23	0x3f208ec5	0.6271785
24	0xbf85cf69	-1.0453922
25	0x3f5c0569	0.85945755
26	0x3ec55296	0.3853957
27	0x400d5679	2.2084029
28	0x3f086da3	0.5329229
29	0x3ea6a876	0.325504
30	0x3f8f7bfe	1.1209714
31	0xbfa62664	-1.2980466
32	0xbf86b2bd	-1.0523297
33	0xbfa0026d	-1.250074
34	0xbea593a4	-0.32339203
35	0xbf23e489	-0.6402059
36	0x3f24efc0	0.6442833
37	0x3f0db24e	0.55350196
38	0xbf42a7bd	-0.760372
39	0x3f87b223	1.0601238
40	0xbff53b76	-1.9158771
41	0xbf150df6	-0.5822443
42	0x3fef6c9a	1.8705018
43	0x3c237f42	0.009979071
44	0xbf9e237b	-1.2354578
45	0x3e7fe63f	0.24990176
46	0x3fa027bf	1.251213
47	0x3fa49568	1.2858095
48	0x3f2c9a52	0.67422974
49	0xbf31cde9	-0.6945482
50	0x3f41bd61	0.75679594
51	0xbf206590	-0.6265497
52	0x3f172435	0.5903962
53	0x3e14277e	0.1446819
54	0xbefa68a5	-0.48907962
55	0xbe4f6663	-0.20253901
56	0xbf9d92be	-1.2310407
57	0xbf98fa13	-1.1951317
58	0x3f63978e	0.8890313
59	0x3fae7fc3	1.363274
60	0x3f1902c9	0.59769875
61	0xbf5c68b0	-0.8609724
62	0x3fa90ff9	1.3208
63	0xbeb13485	-0.34610382
64	0x3f64aa36	0.8932222
65	0x3f53ef50	0.82787037
66	0xbfc2efa8	-1.5229387
67	0x3f660c2a	0.8986231
68	0x3fd4501f	1.6586951
69	0x3ec4660b	0.38359103
70	0x3e18339e	0.1486344
71	0xbf09c6e9	-0.5381914
72	0x3ee2aeb9	0.44273928
73	0xbef32710	-0.4749074
74	0xbf1a9745	-0.6038707
75	0x3e113d50	0.14183545
76	0xbf85c26c	-1.0449958
77	0x3c6e076c	0.014528137
78	0xbf211e7b	-0.62937135
79	0xbf3fba0c	-0.7489326
80	0xbecc83a4	-0.39944184
81	0xbf07570b	-0.5286719
82	0x3f895249	1.0728236
83	0x3ee464c7	0.44608137
84	0x3f70b232	0.94021904
85	0xbf7a3289	-0.9773336
86	0xbf9216a2	-1.1413157
87	0xbf858936	-1.0432498
88	0x3f556457	0.8335623
89	0xbf2434d2	-0.641431
90	0x3f5e56e5	0.8685134
91	0xbe30886c	-0.17239541
92	0xbef790f2	-0.48352772
93	0x3f3498d8	0.7054572
94	0x3c185a66	0.009298896
95	0xbe09532b	-0.13410632
96	0xbe18a29c	-0.1490578
97	0xbf494221	-0.7861653
98	0x3fb54717	1.416232
99	0x3f3abebd	0.72947294
100	0xbfd3d8a7	-1.6550492
101	0x3f007ba9	0.5018869
102	0x3fbc8223	1.4727215
103	0xbf80dc64	-1.0067258
104	0xbfe10384	-1.7579198
105	0xbef1a1cb	-0.4719375
106	0x3fc7a783	1.5597996
107	0xbea9ab83	-0.33138666
108	0xbdb42e81	-0.087979324
109	0x3f0d425b	0.55179375
110	0x3e5c7431	0.21528699
111	0xbe935ef1	-0.28783372
112	0x3f613d38	0.8798404
113	0x3f194116	0.5986494
114	0x3f0ca906	0.5494541
115	0x3f91edf7	1.1400746
116	0x401b5b45	2.4274457
117	0xbf8d00dc	-1.1015887
118	0x3f9571e7	1.1675385
119	0xbfac219c	-1.3447757
120	0xbf92c9ef	-1.1467875
121	0x3dbd1730	0.09232938
122	0x3e650722	0.22366002
123	0xbf14700e	-0.5798348
124	0x3fc80fef	1.5629863
125	0x3f197de7	0.59957737
126	0x3f8ac67f	1.0841826
127	0x3f6ea637	0.93222374
128	0x3f22037a	0.63286555
129	0x3c11aaf5	0.008890857
130	0x3f8660f4	1.0498338
131	0xbf995702	-1.1979678
132	0xbdb0fc31	-0.08641852
133	0x3f4d9dfe	0.803192
134	0x3f1dc463	0.6162779
135	0x3f706f51	0.93919855
136	0xbe5cad1d	-0.21550412
137	0xbf916a78	-1.1360617
138	0x3e8c4ea9	0.27403763
139	0x3f399a4c	0.72501063
140	0x3f826f16	1.0190151
141	0x3f474ba0	0.7784977
142	0x3e9af48a	0.30264693
143	0x3da55048	0.08071953
144	0x3f9360d3	1.1513923
145	0x3f1b1fab	0.60595196
146	0xbf725a6a	-0.9466921
147	0x3f161748	0.58629274
148	0xbf621633	-0.88315123
149	0x3f15bad8	0.58488226
150	0x3ef3d4a2	0.47623163
151	0xbee14af4	-0.44002497
152	0x3fa67b12	1.3006308
153	0xbf883168	-1.0640078
154	0xbe94d449	-0.2906821
155	0xbf9dfa86	-1.2342079
156	0xbf714d06	-0.94258153
157	0x3fcf4901	1.6194154
158	0xbf0e319e	-0.5554446
159	0x3f8008db	1.0002702
160	0x3f98ba9d	1.193195
161	0x3f55397f	0.8329086
162	0xbf653dc7	-0.8954739
163	0x3f27c0ae	0.6552838
164	0xbf4ac9bd	-0.7921408
165	0xbefc0acc	-0.49226987
166	0xbf161f93	-0.5864193
167	0x3e0f7bcb	0.14012067
168	0x3f2bc1f8	0.6709285
169	0x3f8be5f4	1.0929551
170	0xbe1eb4fa	-0.15498725
171	0xbe10f709	-0.14156736
172	0xbf8c84b2	-1.0977995
173	0x3e2fd13b	0.17169659
174	0xbf226044	-0.6342814
175	0xbf8d57d8	-1.1042433
176	0x3f9438c7	1.1579827
177	0x3f668749	0.9005018
178	0xbfc60099	-1.5468932
179	0x3fb2ec49	1.3978359
180	0xbf03eefd	-0.5153654
181	0x3ee85cbf	0.4538326
182	0xbed7e16d	-0.42164174
183	0xbf07099d	-0.52749044
184	0x3f216e9c	0.630594
185	0x3f187d67	0.5956635
186	0xbfd114e5	-1.6334502
187	0xbf0ee96c	-0.55824924
188	0xbf22b377	-0.6355509
189	0x3f57af09	0.8425146
190	0xbf2f6d97	-0.68526596
191	0xbed1c20b	-0.40968356
192	0xbf3f8f07	-0.7482762
193	0xbe492ecc	-0.19646758
194	0x3eb041ff	0.3442535
195	0x3f3a821a	0.7285477
196	0xbef7b299	-0.48378447
197	0xbf5d14f9	-0.86360127
198	0xbf4697a8	-0.7757516
199	0x3f3055d8	0.6888099
200	0xbf3ff16e	-0.7497777
201	0x3f775d91	0.96627146
202	0x3fb5576a	1.4167302
203	0xbd35352e	-0.04424017
204	0x3f569fd7	0.83837646
205	0x3f538254	0.8262074
206	0x3fc38040	1.5273514
207	0x3fa2602a	1.2685597
208	0xbe98e1cf	-0.29859778
209	0x3e8f9758	0.28045154
210	0xbd67e57d	-0.05661534
211	0xbf89bf12	-1.0761435
212	0xbfc85afd	-1.5652767
213	0x3f9867c2	1.1906664
214	0x3f23739c	0.6384828
215	0x3ebf78a6	0.37396735
216	0xbe4e71fc	-0.20160669
217	0x3f7012b4	0.9377854
218	0xbf957e4c	-1.1679168
219	0x3f480bc8	0.78142977
220	0x3fc78cba	1.5589821
221	0xbe0db0b1	-0.13836934
222	0x3e1eb4ff	0.15498732
223	0x3f511686	0.81674993
224	0x3f1c3dd1	0.61031824
225	0x3fa231e4	1.2671475
226	0xbf466a75	-0.7750619
227	0xbf99c339	-1.2012702
228	0x3fadc727	1.3576401
229	0xbe92709d	-0.28601542
230	0xbf96279b	-1.1730837
231	0x3eab6479	0.33475092
232	0x3ecf743f	0.40518376
233	0x3f59dc83	0.851021
234	0xbe71374f	-0.23556255
235	0x3faf08e3	1.3674587
236	0xbeb2b70d	-0.34905282
237	0xbe23c7fe	-0.1599426
238	0x3f81a27a	1.0127709
239	0x3f951b3b	1.1648935
240	0xbfa3c1e4	-1.2793546
241	0xbebbd565	-0.36686245
242	0xbfb246c9	-1.3927852
243	0xbf912c6c	-1.1341681
244	0x3eef3384	0.4671899
245	0x3ec15fb2	0.37768322
246	0xbf067fbb	-0.5253865
247	0xbef2820a	-0.47364837
248	0x3f7aea20	0.98013496
249	0xbf37078a	-0.7149588
250	0xbf718b64	-0.9435332
251	0xbf9f5b26	-1.2449691
252	0xbe92c980	-0.28669357
253	0xbf56690b	-0.8375403
254	0xbf758a16	-0.9591383
255	0xbf9cfb66	-1.2264221

fc_layers.4.bias f4 [128]
0	0xbd755d06	-0.059903167
1	0xbdbe2a66	-0.092854306
2	0x3fbe896c	1.4885688
3	0x3ec1e953	0.37873325
4	0x3f97fc7c	1.1873927
5	0xbfcdc9b4	-1.607718
6	0xbf002c78	-0.50067854
7	0xbe833bf3	-0.25631675
8	0x3e860ece	0.2618317
9	0xbf9ce05b	-1.2255968
10	0xbe01752d	-0.12642355
11	0x3f84e45f	1.0382193
12	0x3f2a2e89	0.66477257
13	0xbe39ed47	-0.1815692
14	0x3fd31e8c	1.6493697
15	0xbf9b2120	-1.2119484
16	0xbf8dae9e	-1.1068914
17	0xbd1e6201	-0.038667683
18	0x3f37b19a	0.71755373
19	0x3ea9d9c4	0.33173954
20	0x4006021c	2.0938787
21	0x3f64da06	0.8939518
22	0x3f52d731	0.82359606
23	0x3fad801d	1.3554722
24	0x3f06383d	0.5242956
25	0xbf9d8b5d	-1.2308155
26	0xc00eb335	-2.229688
27	0xbf00e274	-0.5034554
28	0xbfd80bf1	-1.6878644
29	0xbecd275f	-0.400691
30	0x3eb22db0	0.34800482
31	0xb9f4fcae	-0.00046727568
32	0xbfa2ab14	-1.2708459
33	0xbf72b032	-0.948001
34	0x3f8e560f	1.1120013
35	0xbf7db2ea	-0.99101126
36	0x3ceb9c61	0.02876109
37	0xbed6b4f9	-0.41934946
38	0x3ead943c	0.33902156
39	0xbf1c9f87	-0.6118092
40	0x3fc8c038	1.568366
41	0x3eccf7f7	0.40032932
42	0x3fe0677d	1.7531582
43	0xbf90aed2	-1.1303351
44	0x3e9f3730	0.31096792
45	0xbebd169b	-0.3693131
46	0xc014b388	-2.3234577
47	0xbf214b40	-0.6300545
48	0x3f21ea5c	0.6324823
49	0x400a4ddb	2.161002
50	0x3f9045ae	1.1271265
51	0x3ea5d418	0.32388377
52	0x3e9b1803	0.30291757
53	0xbed6d118	-0.419564
54	0x3dbfbda3	0.09362342
55	0xbfa2a115	-1.2705408
56	0x3fa49470	1.28578
57	0xbfb1d7c6	-1.3893974
58	0xbf8637b1	-1.0485746
59	0x3f0d59b5	0.5521501
60	0x3fb932ba	1.4468606
61	0x3f433616	0.76254404
62	0x3f0b44b6	0.5440172
63	0xbddfea7f	-0.109333985
64	0xbe7578eb	-0.23971908
65	0x3f4fe410	0.8120737
66	0x3fd2479b	1.6428102
67	0xbf0f91c8	-0.5608182
68	0xbef00710	-0.46880388
69	0xbed315f9	-0.412277
70	0x400b55ee	2.1771197
71	0xbfaadfea	-1.3349583
72	0xbf3387c3	-0.7012903
73	0x3ff5d8b0	1.9206753
74	0xbef8bbeb	-0.4858087
75	0x4044a47c	3.0725393
76	0x4008e803	2.1391609
77	0x3d9cd961	0.07658649
78	0x3eaa3f8a	0.332516
79	0x3fe5b640	1.7946243
80	0x3e9e7081	0.3094521
81	0x3fd6db2b	1.6785635
82	0x3ef7f75c	0.48430908
83	0xbe71f1c4	-0.23627383
84	0xc006eccb	-2.1082027
85	0x3f214667	0.6299805
86	0xbfa4516f	-1.2837352
87	0xb8243cea	-3.9157378e-05
88	0xbede8598	-0.434613
89	0x4000c1b7	2.0118234
90	0xbe1ac81f	-0.15115403
91	0xbfe5d375	-1.7955157
92	0xbfdd0e43	-1.7269977
93	0xbf1245ee	-0.57137954
94	0xbfdcab00	-1.7239685
95	0xbf8dc26d	-1.1074959
96	0xbfb65075	-1.4243304
97	0xbe37cdb0	-0.17949557
98	0xbeb5b0bb	-0.35486397
99	0xbf26d530	-0.6516905
100	0xbf8a3eed	-1.0800453
101	0x3f1cbd0d	0.6122597
102	0xc014a5c3	-2.3226173
103	0xbf49f523	-0.78889674
104	0x3f8391b0	1.0278835
105	0x4026553a	2.5989518
106	0xbed0a71c	-0.40752494
107	0x3e53c126	0.20679149
108	0x3fc36ab5	1.5266939
109	0x3f15da52	0.58536255
110	0xbf8fe656	-1.1242168
111	0x40569df5	3.353391
112	0x3c8becb6	0.017080646
113	0x401b968d	2.431064
114	0x3fb0427d	1.3770291
115	0x3d3c8472	0.046024747
116	0x3f3fa3af	0.74859136
117	0xbf287fdf	-0.65820116
118	0xbeac3b5a	-0.33639032
119	0xbfe96c0e	-1.8236101
120	0x3d0c052e	0.034184627
121	0xbf022a5b	-0.5084588
122	0x3eab17c4	0.3341657
123	0xbed55d1a	-0.41672593
124	0xbfd3f7f4	-1.6560044
125	0x3ee9e221	0.45680335
126	0xbe459676	-0.19295678
127	0xbf928611	-1.1447164

fc_layers.6.weight f4 [4, 128]
0	0xbec6a557	-0.3879802
1	0xbf07fccf	-0.5312013
2	0xbf2e3e3c	-0.6806371
3	0x3dc26cd3	0.09493413
4	0x3e07b947	0.13254271
5	0x3e6bd5b1	0.23030736
6	0x3d938827	0.072037034
7	0x3d15a7c6	0.036536954
8	0x3f3895a8	0.7210336
9	0xbe0e3840	-0.13888645
10	0xbd4cf12b	-0.050034683
11	0xbe2fae13	-0.17156248
12	0x3e852264	0.260028
13	0x3eba6044	0.3640157
14	0xbeeebeca	-0.46629936
15	0xbf25f49d	-0.64826375
16	0x3eb424f6	0.3518445
17	0xbd34fa0d	-0.04418378
18	0xbe68cb7e	-0.22733876
19	0xbe44f56c	-0.19234246
20	0xbef7a216	-0.4836585
21	0xbe73ea65	-0.23819883
22	0x3e8188bb	0.2529963
23	0x3eb2a996	0.3489501
24	0x3d2980f9	0.041382764
25	0xbde1a5ec	-0.11017975
26	0x3efceb57	0.493983
27	0xbebd6a7f	-0.36995313
28	0x3e85314a	0.26014167
29	0xbf388551	-0.72078425
30	0xbe64b339	-0.22333993
31	0xbf650abc	-0.89469504
32	0x3e7c6a97	0.24650036
33	0xbe786f2e	-0.24261162
34	0x3efd26d3	0.49443683
35	0x3e555c7d	0.20836063
36	0xbc70f26e	-0.014706237
37	0xbdc72946	-0.09724669
38	0xbe290d46	-0.1650897
39	0x3f4565f5	0.771087
40	0xbef785d3	-0.48344287
41	0xbe0e58ab	-0.13901012
42	0xbcb9a72e	-0.022662725
43	0x3d710346	0.058841012
44	0x3cad54c9	0.021158593
45	0xbef3fd0c	-0.47653997
46	0x3e178dce	0.14800188
47	0x4009e933	2.1548584
48	0xbe5c2957	-0.21500145
49	0xbd5b2181	-0.05349875
50	0x3eab204b	0.33423075
51	0x3db17f95	0.086669125
52	0xbd95c52c	-0.07312998
53	0x3e20444c	0.15651053
54	0xbe52cddf	-0.20586346
55	0xbea1a5b7	-0.31571743
56	0xbd6eda2b	-0.05831353
57	0xbedcad3d	-0.4310092
58	0x3e6334f5	0.2218817
59	0x3fabdf02	1.3427432
60	0xbf14d94f	-0.58144087
61	0x3f28d0de	0.65943706
62	0x3e153bed	0.14573641
63	0xbd490256	-0.049074493
64	0x3edca657	0.43095657
65	0xbe8c941f	-0.27456757
66	0x3e8d1385	0.27553955
67	0xbe011b98	-0.12608182
68	0xbe601e2a	-0.21886507
69	0xbe9ac4a0	-0.30228138
70	0xbe887429	-0.26651123
71	0xbedc2e20	-0.4300394
72	0x3d9b419e	0.07580875
73	0xbe66e303	-0.22547536
74	0xbebb22fb	-0.36550125
75	0xbdf83ea2	-0.12121321
76	0xbf1c9a18	-0.6117263
77	0x3e863ad2	0.2621675
78	0x3e0875de	0.13326213
79	0xbf0da8e0	-0.5533581
80	0x3ebf9d62	0.3742476
81	0x3d6ab163	0.057298075
82	0x3e658fe6	0.22418174
83	0x3d3a455e	0.04547631
84	0x3e3f58d4	0.18686229
85	0xbf01ed63	-0.5075285
86	0x3f404a15	0.7511304
87	0x3efd656a	0.49491435
88	0xbd7f4753	-0.06232388
89	0xbea2683c	-0.3172015
90	0xbe890842	-0.26764113
91	0x3d9d5787	0.0768271
92	0x3bb73a33	0.0055916547
93	0x3d554dc4	0.052076116
94	0xbe27ca5b	-0.16385786
95	0xbea79165	-0.32728115
96	0x3df51fd8	0.11968964
97	0x3e63e8d2	0.22256783
98	0xbebe018e	-0.3711056
99	0x3df2ae36	0.11849634
100	0x3d6da060	0.058014274
101	0xbebf09b1	-0.3731208
102	0x3f07a09e	0.5297946
103	0x3b215f16	0.0024623326
104	0xbd19dbf4	-0.03756328
105	0xbe0d1efe	-0.13781354
106	0x3e889068	0.26672673
107	0x3f1068e2	0.5641004
108	0x3e0f7181	0.14008142
109	0x3eedb78c	0.46429098
110	0x3eea7d84	0.45798886
111	0xbe315cb4	-0.1732052
112	0xbe88f593	-0.26749858
113	0xbe0d9cd6	-0.1382936
114	0xbe7b81e8	-0.24561274
115	0xbe9c6c3b	-0.30551323
116	0x3d4f30f4	0.050583795
117	0x3dacb42b	0.08432802
118	0x3b7803f2	0.0037844148
119	0xbed5e3a6	-0.41775244
120	0x3ead8e35	0.33897558
121	0xbe07d4ea	-0.13264814
122	0x3ec6a7b4	0.38799822
123	0xbda194dd	-0.078897215
124	0x3c6fe3cc	0.014641713
125	0xbeac19f0	-0.3361354
126	0x3f08febc	0.53513694
127	0xbecd21a8	-0.4006474
128	0xbe891ad1	-0.26778272
129	0xb9d87790	-0.00041287811
130	0xbe8a1fa6	-0.2697727
131	0x3effc8d2	0.499579
132	0xbc80a80e	-0.015705135
133	0x3f1f4f93	0.62230796
134	0x3d1a9ab4	0.037745193
135	0xbe3888d0	-0.1802094
136	0x3e85030a	0.2597888
137	0xbe30257c	-0.17201799
138	0x3d837fb2	0.0642084
139	0xbe9099c4	-0.28242314
140	0x3dc51cf9	0.09624667
141	0xbe2b1afa	-0.1670951
142	0xbefbe574	-0.49198496
143	0x3da7b5f4	0.08189002
144	0x3e323811	0.174042
145	0xbe5593e7	-0.20857202
146	0x3dafbe25	0.08581189
147	0x3cdf4dea	0.027258832
148	0xbe010faa	-0.12603632
149	0xbe2bac20	-0.16764879
150	0xbd440c2e	-0.047863178
151	0x3ddbea23	0.107380174
152	0x3c0e1e07	0.008674151
153	0x3eee7a85	0.4657785
154	0x3e007523	0.12544684
155	0xbd1a17b6	-0.03762027
156	0x3e429f73	0.19006138
157	0xbf161859	-0.586309
158	0xbf0276ed	-0.50962716
159	0x3db37619	0.0876276
160	0x3ef8f316	0.4862296
161	0x3ece8bd6	0.4034106
162	0x3ed13ee1	0.40868285
163	0x3cb052a0	0.021523774
164	0xbea2f085	-0.31824127
165	0x3ea44ffd	0.32092276
166	0x3cfa0634	0.030520536
167	0x3f015239	0.50516087
168	0xbe056541	-0.13026907
169	0xbd8a751b	-0.06760617
170	0xbf159874	-0.5843575
171	0x3e2224c9	0.15834345
172	0x3e9f42b1	0.3110557
173	0xbe005e48	-0.12535965
174	0xbc925b3a	-0.017865766
175	0x3ffa4863	1.9553341
176	0xbe11c683	-0.14235882
177	0xbed0cb79	-0.40780237
178	0x3ef445de	0.47709554
179	0xbe92ab85	-0.28646484
180	0x3c5ad089	0.013355383
181	0xbc77fe23	-0.0151362745
182	0xbade7406	-0.0016971834
183	0xbe00275b	-0.12515013
184	0xbea75ae5	-0.32686535
185	0xbf19ed0b	-0.60127324
186	0x3ebee6e9	0.37285545
187	0x3fd60bea	1.6722386
188	0xbe3db8a0	-0.1852746
189	0x3f419164	0.75612473
190	0xbd148c68	-0.036266714
191	0xbe1ef96d	-0.15524836
192	0xb89fc720	-7.618801e-05
193	0xbe088865	-0.1333328
194	0x3e99d181	0.3004265
195	0x3dc77541	0.09739161
196	0x3eb37b84	0.35055172
197	0xbf0339fb	-0.51260346
198	0x3d510750	0.051032364
199	0x3e3780e6	0.17920265
200	0x3df6e36e	0.120550975
201	0x3b81a30e	0.003956205
202	0xbf1b97d6	-0.6077856
203	0xbf002876	-0.5006174
204	0x3cea6d69	0.028616624
205	0x3dd09acf	0.101857774
206	0xbe72e0db	-0.23718588
207	0x3d4e76b1	0.05040616
208	0x3e5947dc	0.21218818
209	0xbec9b9dc	-0.39399612
210	0x3e5f9c1f	0.21836899
211	0x3e96158a	0.29313308
212	0x3ef8d388	0.48598886
213	0xbd0d5ea2	-0.034514077
214	0x3ebbb61f	0.36662385
215	0x3e87ebf6	0.2654721
216	0x3e20938a	0.15681282
217	0xbf1671a5	-0.5876716
218	0x3d15ac26	0.036541127
219	0x3edd794b	0.43256602
220	0x3e0e7652	0.13912323
221	0x3cf7161c	0.03016191
222	0x3f213652	0.6297351
223	0xbf02940e	-0.51007164
224	0x3dbceafd	0.09224508
225	0x3eab06aa	0.33403522
226	0xbdbd9c4b	-0.09258326
227	0x3d93ae27	0.07210951
228	0x3ed3a828	0.4133923
229	0xbdb4fff8	-0.08837885
230	0x3ed3028c	0.4121288
231	0xbccb9dbf	-0.024855493
232	0x3d1c247a	0.038120724
233	0xbe18fff2	-0.14941385
234	0x3e37ea7a	0.1796054
235	0x3f5bdc10	0.85882664
236	0x3ea722c4	0.32643712
237	0x3f1124c3	0.5669672
238	0xbd3e5dee	-0.046476297
239	0xbe023961	-0.12717201
240	0xbf07ae9c	-0.5300081
241	0xbe5676d8	-0.20943773
242	0xbe3c98bc	-0.18417639
243	0x3dc462ba	0.09589143
244	0xbe9974b2	-0.29971844
245	0x3f0c531a	0.548143
246	0xbec566f5	-0.38555112
247	0xbe9866a1	-0.297658
248	0x3d99bc29	0.07506592
249	0x3cf0086e	0.029300895
250	0xbde032c7	-0.10947185
251	0x3d1988b4	0.037483886
252	0x3e57db62	0.21079782
253	0xbee3c05e	-0.44482702
254	0x3f1c1257	0.60965484
255	0x3e5e64af	0.21718095

fc_layers.6.bias f4 [4]
0	0xbeeff793	-0.46868572
1	0xbe324402	-0.17408755
2	0xbe4b65ce	-0.19863054
3	0x3f55df88	0.83544207

mlp.1.weight f4 [34]
0	0x3f3c07e1	0.7344952
1	0x3f1d13fd	0.61358625
2	0x3f0800c4	0.5312617
3	0x3f376090	0.7163172
4	0x3f16c3cc	0.5889251
5	0x3f1d535f	0.6145534
6	0x3f800000	1.0
7	0x3f24ec4f	0.6442308
8	0x3f800000	1.0
9	0x3eee3ad5	0.4652926
10	0x3f800000	1.0
11	0x3ee5aa74	0.44856608
12	0x3f800000	1.0
13	0x3e9e3076	0.30896348
14	0x3f800000	1.0
15	0x3e852e4d	0.26011887
16	0x3f800000	1.0
17	0x3f800000	1.0
18	0x3f800000	1.0
19	0x3f800000	1.0
20	0x3f800000	1.0
21	0x3f030e71	0.5119391
22	0x3f800000	1.0
23	0x3ef4ad46	0.47788447
24	0x3f800000	1.0
25	0x3f05e1fd	0.52297956
26	0x3f800000	1.0
27	0x3ee0d8bd	0.43915358
28	0x3f800000	1.0
29	0x3e9d6efa	0.3074873
30	0x3f800000	1.0
31	0x3ddf27c4	0.108962566
32	0x3f800000	1.0
33	0x3e82ea0c	0.2556919

mlp.1.bias f4 [34]
0	0x3d98625d	0.07440636
1	0x3d1eac5d	0.038738597
2	0x3da03262	0.0782211
3	0xbb2ead3e	-0.0026653553
4	0xbd102dc5	-0.0351999
5	0xbbeb7d76	-0.007186587
6	0x3d737298	0.059435457
7	0x3c155144	0.0091136135
8	0x3da32cd8	0.07967538
9	0xbddf33c5	-0.10898546
10	0xbc07d3c5	-0.008290236
11	0xbd893049	-0.06698663
12	0x3a605d36	0.00085588114
13	0x3cabe17e	0.020981546
14	0x3ba3683f	0.0049867923
15	0x3c519744	0.012792412
16	0x3c7275a2	0.014798554
17	0x3d43f88e	0.047844462
18	0xbcbe74eb	-0.02324911
19	0xbd102ab3	-0.03519697
20	0xbcb0dfcf	-0.021591095
21	0x3e8a4de7	0.2701256
22	0xbc9b4416	-0.018953364
23	0xbbf63c91	-0.0075145443
24	0x3b2d2419	0.002641922
25	0x3d3fa6cf	0.04678994
26	0xbde6562a	-0.11246903
27	0x3d83dda9	0.06438763
28	0x3c40e244	0.011772696
29	0x3d685ac2	0.05672718
30	0xbdf0523b	-0.11734434
31	0xbc960759	-0.01831405
32	0xbda3f3c7	-0.08005481
33	0x3c07e212	0.008293645

mlp.1.running_mean f4 [34]
0	0x3ea8c7b0	0.3296485
1	0x3eada0f1	0.3391185
2	0x3ea9975f	0.331233
3	0x3e032460	0.12806845
4	0x3dfe44d8	0.12415475
5	0x3de5aea6	0.11214952
6	0x00000000	0.0
7	0x3f2b8b11	0.67009073
8	0x00000000	0.0
9	0x3e4eabd7	0.20182739
10	0x00000000	0.0
11	0x3db54dc8	0.08852726
12	0x00000000	0.0
13	0x3c8e5317	0.017373605
14	0x00000000	0.0
15	0x3cb5b508	0.022181049
16	0x00000000	0.0
17	0x00000000	0.0
18	0x00000000	0.0
19	0x00000000	0.0
20	0x00000000	0.0
21	0x3f0c4a61	0.54800993
22	0x00000000	0.0
23	0x3e5513e4	0.20808369
24	0x00000000	0.0
25	0x3e107abc	0.1410932
26	0x00000000	0.0
27	0x3d16931a	0.03676138
28	0x00000000	0.0
29	0x3cd91070	0.026497096
30	0x00000000	0.0
31	0x3c8e5317	0.017373605
32	0x00000000	0.0
33	0x3cb5b508	0.022181049

mlp.1.running_var f4 [34]
0	0x3e625db4	0.22106057
1	0x3e656b58	0.2240423
2	0x3e629501	0.22127153
3	0x3de51a11	0.111866124
4	0x3ddea648	0.108715594
5	0x3dcc4590	0.099742055
6	0x00000004	6e-45
7	0x3e62280a	0.22085586
8	0x00000004	6e-45
9	0x3e24b4eb	0.1608464
10	0x00000004	6e-45
11	0x3da52bcd	0.08064995
12	0x00000004	6e-45
13	0x3c8baef5	0.0170512
14	0x00000004	6e-45
15	0x3cb19c4f	0.021680979
16	0x00000004	6e-45
17	0x00000004	6e-45
18	0x00000004	6e-45
19	0x00000004	6e-45
20	0x00000004	6e-45
21	0x3e7d8e05	0.24761207
22	0x00000004	6e-45
23	0x3e28f16c	0.16498345
24	0x00000004	6e-45
25	0x3df823e2	0.12116219
26	0x00000004	6e-45
27	0x3d109e0c	0.035306975
28	0x00000004	6e-45
29	0x3cd35f29	0.025802212
30	0x00000004	6e-45
31	0x3c8baef5	0.0170512
32	0x00000004	6e-45
33	0x3cb19c4f	0.021680979

mlp.2.weight f4 [128, 34]
0	0xbe32d296	-0.17463145
1	0xbc9432ea	-0.018090684
2	0x3dd76841	0.10517932
3	0x3cac34af	0.021021215
4	0x3e331218	0.17487371
5	0x3e59b2f5	0.21259673
6	0xbe228cfb	-0.15874092
7	0x3eaef345	0.34169975
8	0xbe809903	-0.2511674
9	0xbded4b36	-0.11586611
10	0xbef245be	-0.47318834
11	0xbe8a0026	-0.26953238
12	0xbca57c1d	-0.020200783
13	0xbe3587da	-0.17727605
14	0xbc87ba6a	-0.016568381
15	0x3dd740b6	0.105103895
16	0xbbd5c5f3	-0.0065238415
17	0xbe2a4eaf	-0.16631578
18	0xbdbe841f	-0.09302544
19	0x3e020ee4	0.12700993
20	0x3cf6ad48	0.030111924
21	0xbe383bf5	-0.17991622
22	0xbcdd037f	-0.026979206
23	0x3dd8f995	0.10594479
24	0xbda58193	-0.08081355
25	0x3e3be26d	0.18348093
26	0x3ca9c1d6	0.020722311
27	0xbdf1fe3c	-0.118160695
28	0xbd3fdb22	-0.04683984
29	0x3d697b30	0.057002246
30	0x3cf267e2	0.02959055
31	0xbd02f8d6	-0.03197559
32	0x3df31143	0.11868527
33	0xbdd58699	-0.10426063
34	0xbe96f8bf	-0.29486653
35	0xbe2ca8b2	-0.16861227
36	0x3e61930b	0.22028749
37	0xbe9d335f	-0.30703256
38	0xbd81fe33	-0.06347313
39	0x3c7e0383	0.015503767
40	0x3d98081c	0.07423422
41	0xbec369a2	-0.3816653
42	0xbd81e44d	-0.06342373
43	0x3ea1e5ac	0.31620538
44	0x3b207eed	0.0024489716
45	0x3e58327c	0.21113008
46	0x3d04fdae	0.03246849
47	0x3d8d173f	0.068891995
48	0xbccfafa5	-0.025352309
49	0xbb9edf18	-0.004848372
50	0xbe1b3d54	-0.15160114
51	0xbe531357	-0.20612846
52	0x3d84571c	0.06461927
53	0xbd040f0d	-0.032240916
54	0x3da8c5bc	0.0824084
55	0xbea4f2f6	-0.32216614
56	0xbce915c1	-0.028452756
57	0x3de171d7	0.11008041
58	0xbd5bb33a	-0.05363772
59	0x3e01b91b	0.12668268
60	0xbd1d2dd4	-0.038373783
61	0xbf0d38e0	-0.5516491
62	0x3dc263a9	0.09491665
63	0x3e4f2abd	0.20231147
64	0xbd4f8c08	-0.050670654
65	0xbdc603ee	-0.09668718
66	0x3b07d242	0.0020724689
67	0x3dd321c7	0.10309177
68	0x3dea440e	0.11438762
69	0xbed344a2	-0.412633
70	0x3e001981	0.12509729
71	0x3ec8af78	0.39196372
72	0xbe95ce68	-0.29259038
73	0xbb108e31	-0.002205741
74	0xbcdcfebc	-0.026976936
75	0xbd257f39	-0.040404532
76	0xbe42f29f	-0.19037865
77	0x3d48edf7	0.049055066
78	0xbe585dd7	-0.21129547
79	0xbe0fc1fa	-0.1403884
80	0x3c6c7e19	0.014434361
81	0x3ebb1f4b	0.36547312
82	0x3abdc37d	0.0014477816
83	0xbe7ae158	-0.24500024
84	0x3de31068	0.110871136
85	0xbcae25fd	-0.021258349
86	0x3e4efa81	0.20212747
87	0xbe71b3dc	-0.23603767
88	0x3e939501	0.28824618
89	0x3a8bb4e6	0.001065877
90	0x3d83bebd	0.06432865
91	0x3daa924f	0.083286874
92	0x3df23cd2	0.11828007
93	0xbda14972	-0.07875337
94	0x3e915b94	0.2839018
95	0xbdcad921	-0.09904695
96	0xbe381a48	-0.17978776
97	0xbbae13ed	-0.005312434
98	0x3e8eef3c	0.27916896
99	0x3e1f7099	0.15570296
100	0x3deec22a	0.116581276
101	0xbdf188dc	-0.11793682
102	0xbe2120ae	-0.15735123
103	0xbe83ad07	-0.25717947
104	0x3e808853	0.25104007
105	0x3db57468	0.08860093
106	0xbe0aebfa	-0.1356658
107	0x3dcb139e	0.09915851
108	0xbeaec778	-0.34136558
109	0x3e599e70	0.21251845
110	0xbee80557	-0.45316574
111	0xbd0fba0b	-0.035089534
112	0x3e13f07b	0.14447205
113	0x3da9d943	0.082933925
114	0xbde6b7ef	-0.11265551
115	0xbe35e956	-0.17764792
116	0xbcdf6972	-0.02727196
117	0xbccd2dc5	-0.025046239
118	0x3ec09a5a	0.3761776
119	0xbec954c8	-0.39322495
120	0x3e8332a9	0.25624588
121	0x3e138e4e	0.14409754
122	0x3dbb0229	0.091312714
123	0xbe81df99	-0.25365904
124	0x3e851986	0.25996035
125	0xbd6625c1	-0.05618835
126	0x3d569a9f	0.052393552
127	0x3d8905f4	0.066905886
128	0x3ee7890f	0.45221755
129	0x3e81ebab	0.25375113
130	0xbe2fd1c1	-0.17169859
131	0xbe5a4345	-0.21314724
132	0x3ed2b84e	0.41156238
133	0xbd9a2ff8	-0.075286806
134	0x3e39c608	0.18141949
135	0xbe718d18	-0.23588979
136	0x3db25cc8	0.08709103
137	0x3e046905	0.12930687
138	0xbe17c6fa	-0.14821997
139	0xbc30414b	-0.010757755
140	0xbb72a2f1	-0.003702339
141	0xbdd08d22	-0.10183169
142	0xbe6c8797	-0.23098598
143	0x3b9a26a9	0.0047043157
144	0xbec1c9d5	-0.37849298
145	0x3c49c88e	0.012315882
146	0x3e3d1e07	0.18468486
147	0xbd87799f	-0.06614994
148	0xbe280893	-0.16409521
149	0xbbf34162	-0.0074235657
150	0xbdb13a93	-0.0865375
151	0xbd859207	-0.06521993
152	0x3eccfc62	0.40036303
153	0xbe0e747e	-0.13911626
154	0x3ea446a9	0.3208516
155	0xbe0f1cc4	-0.13975817
156	0xbda95f27	-0.08270102
157	0x3d9706d1	0.07374347
158	0x3e8da9b6	0.27668542
159	0x3c796f19	0.015224242
160	0x3db6d70a	0.08927734
161	0xbcd9b09b	-0.02657347
162	0x3eb7b9b3	0.35883865
163	0x3c8e8693	0.017398154
164	0xbe0488fb	-0.12942879
165	0xbcb6eb3f	-0.022328971
166	0x3e4e52a5	0.20148714
167	0x3ba08a15	0.004899273
168	0x3e8b7118	0.2723472
169	0x3e1ec3bb	0.15504353
170	0x3e83026d	0.25587788
171	0xbd5f3f02	-0.05450345
172	0x3e852479	0.2600439
173	0x3cc70892	0.024296079
174	0xbe51c4cd	-0.2048523
175	0x3d34ae07	0.044111278
176	0xbe2e5f81	-0.1702862
177	0xbc982218	-0.018570945
178	0xbeb1160f	-0.34587142
179	0xbda928f5	-0.08259765
180	0xbcef9775	-0.029247025
181	0x3e042699	0.12905349
182	0xbde910ee	-0.11380182
183	0xbdd01012	-0.10159315
184	0xbd82b688	-0.06382471
185	0xbd109cfc	-0.035305962
186	0x3e8d7979	0.2763174
187	0xbee1c7bc	-0.44097698
188	0x3e49cd04	0.19707114
189	0x3e2883b8	0.16456497
190	0x3d828dbd	0.06374691
191	0x3c71ed49	0.014766046
192	0x3e148341	0.14503194
193	0x3d4c2807	0.04984286
194	0x3d02b883	0.031914245
195	0xbdee28c0	-0.11628866
196	0x3ed20801	0.41021731
197	0xbe1d6cba	-0.15373507
198	0xbe442938	-0.19156349
199	0x3def541f	0.11685967
200	0x3eed96f5	0.46404234
201	0x3dbb1d46	0.09136443
202	0x3ee7bef2	0.45262867
203	0x3bbbc317	0.0057300436
204	0xbe1758ff	-0.14780043
205	0x3e85e3a1	0.2615023
206	0xbe4b4ffd	-0.19854732
207	0xbd3f25ea	-0.046667017
208	0x3e858e2c	0.2608503
209	0xbe63c276	-0.2224215
210	0xbef6ec08	-0.48226953
211	0x3d46e9da	0.048562862
212	0xbe74d047	-0.23907577
213	0xbd2e54b2	-0.04256124
214	0xbe68ccb6	-0.22734341
215	0x3de819ba	0.11333032
216	0x3e2e3b20	0.17014742
217	0x3e172455	0.14759953
218	0x3c3729b3	0.011179375
219	0xbe19ea9d	-0.15030904
220	0x3cf3cd42	0.02976096
221	0xbeb60972	-0.3555408
222	0xbdd65714	-0.104658276
223	0xbe4db23c	-0.20087522
224	0x3da9c6da	0.08289881
225	0x3de6a784	0.1126242
226	0x3e1b140d	0.15144368
227	0x3d92368d	0.07139311
228	0xbdefaf56	-0.117033646
229	0xbd8c8251	-0.068607934
230	0x3eec7c44	0.46188557
231	0xbcc9c776	-0.024631243
232	0xbce52136	-0.027969938
233	0x3e2fc8a3	0.1716638
234	0x3ef2d6fe	0.4742965
235	0x3e3036be	0.17208382
236	0x3e83428d	0.25636712
237	0xbe589ed8	-0.21154344
238	0x3c58e7cc	0.013238858
239	0xbe43b442	-0.19111732
240	0xbda1e7a7	-0.07905512
241	0xbdd942ad	-0.106084205
242	0xbe0670bf	-0.13128947
243	0xbe3662c3	-0.17811112
244	0xbead1fd7	-0.33813354
245	0xbda9f3c7	-0.0829845
246	0xbdf5a3a4	-0.119941026
247	0xbe30a70e	-0.17251226
248	0xbd28269b	-0.041052442
249	0x3dceb9ea	0.10094054
250	0xbde743b2	-0.11292209
251	0xbdcdde24	-0.100521356
252	0xbe454cb2	-0.19267538
253	0xbb8b294d	-0.004246867
254	0x3e9bf217	0.30458137
255	0xbed4ee01	-0.41587833

mlp.2.bias f4 [128]
0	0xbe30d067	-0.17266999
1	0x3cae301a	0.021263171
2	0xbe95c24d	-0.29249802
3	0xbe2f4dd3	-0.17119531
4	0xbea74cbb	-0.32675728
5	0xbe7c34ae	-0.2462947
6	0xbed35bd4	-0.41280997
7	0xbe986609	-0.29765347
8	0xbed1bad5	-0.40962854
9	0xbdc29f20	-0.09503007
10	0xbe6d4c5f	-0.23173665
11	0xbe416f19	-0.18890037
12	0xbf02f3d3	-0.51153296
13	0xbd1d2199	-0.03836212
14	0xbc57a2c4	-0.013161365
15	0xbd48ccfd	-0.049023617
16	0xbee49caf	-0.4465079
17	0xbea0231e	-0.31276792
18	0xbc7f1318	-0.015568517
19	0xbe91182c	-0.28338754
20	0xbcab6962	-0.020924274
21	0xbe4800fe	-0.19531628
22	0x3e7b794a	0.24557987
23	0xbe8b0aa2	-0.2715655
24	0xbe0d51aa	-0.13800684
25	0xbe8c29d2	-0.27375656
26	0xbe98303f	-0.2972431
27	0xbd71ca80	-0.05903101
28	0xbe871f6e	-0.26391166
29	0xbea5da47	-0.32393095
30	0xbea1c95e	-0.31598943
31	0xbd3fe649	-0.046850476
32	0xbe666b5b	-0.2250189
33	0xbead4855	-0.33844247
34	0xbee0eb7b	-0.43929657
35	0xbe687206	-0.22699746
36	0xbe1ba09e	-0.1519799
37	0xbe3fa661	-0.18715812
38	0xbe9bc267	-0.30421755
39	0xbea59d05	-0.3234636
40	0xbe8efcff	-0.27927396
41	0x3ccae9db	0.024769714
42	0xbeae0e25	-0.33995166
43	0xbdfeb84a	-0.12437494
44	0xbdb6a93a	-0.08918996
45	0xbe3ae2db	-0.18250601
46	0xbeb33445	-0.35000816
47	0xbe6c3efd	-0.23070903
48	0xbeac8512	-0.33695275
49	0xbdb57b0d	-0.08861361
50	0x3dc6235e	0.096747145
51	0xbe429985	-0.19003876
52	0xbeba84c8	-0.3642943
53	0xbef7d62c	-0.48405588
54	0xbe2a7e0f	-0.1664965
55	0xbe691fdf	-0.22766064
56	0xbe52977e	-0.20565602
57	0xbb7bb8e5	-0.0038409766
58	0xbed7209f	-0.42017075
59	0xbe97e942	-0.2967015
60	0xbeb9c06c	-0.3627962
61	0xbded70c2	-0.115937725
62	0xbe31d91b	-0.17367975
63	0xbdc3ce62	-0.09560849
64	0xbe857704	-0.26067364
65	0xbe608a7f	-0.21927832
66	0x3d3dc8e0	0.046334147
67	0x3cd610a7	0.026130987
68	0xbec69ae8	-0.3879006
69	0xbec687fe	-0.3877563
70	0x3df1cc42	0.11806537
71	0xbeac4719	-0.33647993
72	0xbe3473d1	-0.17622305
73	0xbe825a1e	-0.2545938
74	0xbe436a3f	-0.19083498
75	0xbea079f3	-0.3134304
76	0xbe1a85aa	-0.15090051
77	0xbeabdb76	-0.33565873
78	0xbeea1ae1	-0.45723632
79	0xbe9f8673	-0.31157264
80	0xbe33fc81	-0.17576791
81	0xbdf16655	-0.117870964
82	0x3bafad9a	0.005361271
83	0xbeade41e	-0.33963102
84	0xbdf682f9	-0.120367
85	0xbe98d5cd	-0.29850617
86	0xbe30e8ed	-0.17276354
87	0xbe3f53e0	-0.1868434
88	0xbe8a816c	-0.27051866
89	0xbb5cf83d	-0.0033717297
90	0xbea73388	-0.32656503
91	0xbd0b6840	-0.034034967
92	0xbd9807d9	-0.07423372
93	0xbe75d36f	-0.24006437
94	0xbe5849af	-0.21121858
95	0xbe2bff33	-0.1679657
96	0xbe8e0431	-0.27737573
97	0xbe349227	-0.17633878
98	0xbddebc09	-0.108757086
99	0xbe8dda20	-0.2770548
100	0xbedf5d03	-0.4362565
101	0xbd90d861	-0.07072521
102	0xbe491bbf	-0.1963949
103	0xbe272017	-0.16320835
104	0xbe667edb	-0.22509329
105	0xbe91496b	-0.28376326
106	0xbe971e98	-0.2951553
107	0xbe50345c	-0.20332474
108	0xbe38a143	-0.18030266
109	0xbe388f2a	-0.18023363
110	0xbe99c582	-0.300335
111	0xbd471e39	-0.048612807
112	0xbe325248	-0.174142
113	0xbd4512de	-0.048113696
114	0xbec4ee3c	-0.38463008
115	0xbea3f961	-0.32026199
116	0xbe748db4	-0.2388218
117	0x3c1d9326	0.009617602
118	0xbe8c4327	-0.27394983
119	0xbdf1f97f	-0.11815166
120	0xbe1f4f8e	-0.15557691
121	0xbe51a114	-0.20471603
122	0xbeb38190	-0.35059786
123	0xbe8e2b4f	-0.27767417
124	0xbeb2853d	-0.34867278
125	0xbe8a0aa1	-0.26961234
126	0xbd86508b	-0.06558331
127	0xbe87631b	-0.264428

mlp.4.weight f4 [128, 128]
0	0x3e0fc5f8	0.14040363
1	0xbea67688	-0.32512307
2	0xbe69aac2	-0.22819045
3	0xbd9f4ea0	-0.077786684
4	0xbd901380	-0.07034969
5	0xbe908c7c	-0.2823218
6	0xbe6ae238	-0.22937858
7	0x3c2756fe	0.010213612
8	0x3e4942aa	0.19654337
9	0xbeae5bd8	-0.34054446
10	0xbe2f1fb2	-0.17101935
11	0xbea88b02	-0.32918555
12	0xbd228b18	-0.03968343
13	0xbdcb06ba	-0.09913392
14	0x3ea856af	0.32878634
15	0x3d7dd9eb	0.0619754
16	0xbe1c6faa	-0.15276971
17	0xbe3eb76c	-0.18624657
18	0x3ba37432	0.004988217
19	0xbe09c819	-0.13455237
20	0xbe622082	-0.22082713
21	0xbe6d605d	-0.23181291
22	0xbe12febf	-0.1435499
23	0xbe3ee3ad	-0.18641539
24	0xbdcb3612	-0.099224225
25	0x3c881ac3	0.016614323
26	0xbdf76dda	-0.120814994
27	0xbd830058	-0.0639655
28	0xbe0e032d	-0.13868399
29	0xbe48cf91	-0.1961043
30	0xbda39596	-0.07987516
31	0xbed70f21	-0.4200373
32	0xbd2d6421	-0.04233182
33	0xbf17541a	-0.59112704
34	0xbd8d720e	-0.0690652
35	0xbcce6a4a	-0.025197167
36	0xbeb994c0	-0.362463
37	0xbe89d409	-0.26919582
38	0xbe5cab7c	-0.21549791
39	0xbe8d5c4a	-0.27609473
40	0xbe807f89	-0.25097302
41	0x3e2b136f	0.16706632
42	0xbe1a1c4e	-0.1504986
43	0xbe3771ca	-0.17914501
44	0xbe00379d	-0.12521215
45	0xbdbe2336	-0.0928406
46	0xbdd27dda	-0.102779105
47	0xbe8277d8	-0.2548206
48	0xbe800d30	-0.2501006
49	0x3e8f3164	0.2796737
50	0xbe9cd5a1	-0.30631736
51	0xbe29124a	-0.16510883
52	0xbf05a1c4	-0.5219996
53	0xbeafe109	-0.34351376
54	0xbe52b1f5	-0.20575698
55	0x3d8c0aa2	0.068379655
56	0xbec85f83	-0.3913537
57	0xbefbda41	-0.49189952
58	0xbe861c7f	-0.26193616
59	0x3e006fcf	0.12542652
60	0xbeabe9ec	-0.33576906
61	0xbddaad34	-0.10677567
62	0xbe173b4e	-0.14768717
63	0xbe3ef1dc	-0.1864695
64	0xbe218138	-0.1577195
65	0x3ed82dd9	0.4222248
66	0xbe07e072	-0.13269213
67	0x3debb4c0	0.11509085
68	0xbec9d98e	-0.39423794
69	0xbd9737a6	-0.07383661
70	0xbe949d7b	-0.29026398
71	0xbe6bc4d0	-0.23024297
72	0xbb2f3108	-0.0026732106
73	0x3e083df5	0.13304885
74	0xbe85d285	-0.26137176
75	0xbe88017f	-0.2656364
76	0x3d8f5640	0.06998873
77	0xbdbddb66	-0.092703626
78	0x3ec6843a	0.38772756
79	0xbeb16570	-0.34647703
80	0xbdcca4c0	-0.09992361
81	0x3e773e85	0.24144943
82	0x3ec60a20	0.386796
83	0x3daeee64	0.08541563
84	0xbf0a0ee1	-0.53928953
85	0xbeec6d18	-0.46176982
86	0x3e85d0f1	0.26135972
87	0xbecc4b6e	-0.39901298
88	0xbec1c71c	-0.3784722
89	0x3dfa156c	0.12211117
90	0xbee42486	-0.44559115
91	0xbf1e96a2	-0.619486
92	0xbe24cb38	-0.16093147
93	0xbe0c5777	-0.1370524
94	0xbe00dc00	-0.12583923
95	0xbe2b7a57	-0.16745888
96	0xbcd58637	-0.026064975
97	0xbed5fae0	-0.41792965
98	0xbe530d6a	-0.20610586
99	0xbca205a8	-0.019778088
100	0xbea123ff	-0.31472775
101	0xbe4409a8	-0.19144309
102	0xbe11d891	-0.1424277
103	0xbed37f54	-0.4130808
104	0xbe834463	-0.25638112
105	0xbd111cc5	-0.035427827
106	0xbe75c2c1	-0.24000074
107	0x3e864c38	0.26230025
108	0xbea2161c	-0.31657493
109	0xbe7418b1	-0.23837544
110	0xbed92ca1	-0.42416862
111	0xbf0104a0	-0.5039768
112	0xbd421775	-0.04738565
113	0xbeccb885	-0.39984527
114	0xbde150af	-0.11001717
115	0xbda7dad0	-0.08196032
116	0xbebae36d	-0.36501637
117	0xbe1cdaa9	-0.15317787
118	0x3c9a53cf	0.018838791
119	0xbeaa3306	-0.33242053
120	0xbe204f52	-0.15655258
121	0xbe40a659	-0.18813457
122	0x3da1e42c	0.079048485
123	0xbde77b3c	-0.11302802
124	0xbe3efc78	-0.18650997
125	0xbe930fc5	-0.2872297
126	0xbd3c5d8f	-0.045987662
127	0xbf0b70e0	-0.5446911
128	0xbe5120bd	-0.20422645
129	0xbe0374ba	-0.12837496
130	0xbce1345a	-0.027490783
131	0xbe93a83e	-0.28839296
132	0xbdbdf95c	-0.09276077
133	0x3d375a92	0.04476411
134	0x3d4f4375	0.05060144
135	0x3e01e048	0.12683213
136	0xbd633b9b	-0.055476766
137	0x3c8a6e86	0.016898405
138	0x3dd5cb32	0.10439147
139	0x3d8f0892	0.069840565
140	0x3e678f2c	0.2261321
141	0xbe5a6f78	-0.21331584
142	0xbe7f164a	-0.24910846
143	0x3dc6dbed	0.09709916
144	0xbdcd0d2a	-0.100122765
145	0x3c01f6a6	0.007932341
146	0xbcb1c99c	-0.02170258
147	0xbad7c5b5	-0.001646212
148	0xbdd2d85c	-0.102951735
149	0x3d9e7423	0.07736995
150	0xbd8754ef	-0.06607997
151	0xbe624a52	-0.22098663
152	0xbd262484	-0.040562168
153	0xbe013249	-0.12616839
154	0xbd1f0f6d	-0.03883307
155	0xbd44dde6	-0.04806318
156	0xbe0e1333	-0.13874511
157	0xbd765119	-0.060135935
158	0xbdc5b9eb	-0.09654602
159	0xbe010c72	-0.12602404
160	0xbe591940	-0.21201038
161	0xbea46525	-0.32108417
162	0x3de01e9d	0.10943339
163	0x3d471fbe	0.048614256
164	0xbe3e81cb	-0.186042
165	0x3d64cf4b	0.055861752
166	0xbd31639c	-0.043307886
167	0xbd084d68	-0.033276945
168	0xbe0766af	-0.13222764
169	0xbdfe5b4b	-0.124197565
170	0xbdfe8acd	-0.12428818
171	0xbe228d9f	-0.15874337
172	0xbd8cb34d	-0.068701364
173	0xbd8247c3	-0.06361344
174	0x3cfd3c61	0.03091258
175	0xbe06d211	-0.13166071
176	0xbe257ebd	-0.16161628
177	0xbe89f05c	-0.26941192
178	0xbdacf42b	-0.08445009
179	0xbe16ecdb	-0.1473879
180	0xbd59f94b	-0.05321626
181	0xbe116c54	-0.1420148
182	0x3ce60a0c	0.028080963
183	0x3e35b574	0.17745
184	0x3d863361	0.065527685
185	0xbd5ffd37	-0.054684844
186	0xbd255181	-0.04036093
187	0xbe5d276c	-0.2159707
188	0xbb70b180	-0.0036726892
189	0xbe2646a8	-0.1623789
190	0xbe2d6c35	-0.16935809
191	0xbe0e6738	-0.13906562
192	0x3c67b0bc	0.014141258
193	0xbc483753	-0.012220222
194	0xbd923295	-0.07138554
195	0xbd220148	-0.039552003
196	0xbea8ca04	-0.32966626
197	0x3db63cb7	0.08898299
198	0x3d53c356	0.05169996
199	0xbb6a53d3	-0.003575553
200	0x3d220bca	0.039562024
201	0xbe4a924d	-0.19782372
202	0xbc9d8869	-0.019230084
203	0xbbff2876	-0.0077868057
204	0xbd86099a	-0.065448
205	0xb9a1f0c9	-0.00030887712
206	0xbe311d24	-0.17296273
207	0xbe5b715c	-0.21429962
208	0x3d28418f	0.041078147
209	0xbd8812a8	-0.066441834
210	0xbd65602f	-0.05599993
211	0xbbed2756	-0.007237355
212	0xbe342213	-0.17591123
213	0xbdf116c5	-0.11771921
214	0x3e000bde	0.12504527
215	0xbd41b273	-0.047289323
216	0x3e022c78	0.12712276
217	0xbdbff082	-0.09372045
218	0x3de9735b	0.113989554
219	0xbe2e572e	-0.17025444
220	0x3ce7e9aa	0.028309662
221	0xbe14405b	-0.14477675
222	0x3db79866	0.089646146
223	0x3d69c911	0.057076517
224	0xbd802f3e	-0.06259011
225	0xbdfe72ac	-0.12424216
226	0xbe0a5299	-0.13508071
227	0x3d819a0e	0.06328212
228	0xbe39cc0d	-0.18144245
229	0xbc848836	-0.016178232
230	0x3e063d7a	0.13109389
231	0xbeb060c2	-0.3444882
232	0xbe3e2884	-0.18570143
233	0xbdc8882b	-0.09791597
234	0xbe1a8b6f	-0.15092252
235	0xbdbbcdc9	-0.0917011
236	0x3c9ec56b	0.019381246
237	0xbdc78c85	-0.09743599
238	0xbd6e40ee	-0.05816739
239	0xbdb4fdda	-0.08837481
240	0xbe06cda3	-0.13164382
241	0xbd50b3fb	-0.050952893
242	0xbe390552	-0.18068436
243	0x3e3ac029	0.18237366
244	0xbc860b1d	-0.016362721
245	0xbda22373	-0.07916918
246	0x3da6feeb	0.081540905
247	0x3d10bbc1	0.035335306
248	0x3bf345ae	0.007424078
249	0x3db06381	0.08612729
250	0xbd822185	-0.063540496
251	0xbcf201da	-0.029541899
252	0xbd9e5fb3	-0.07733097
253	0xbe2c0f1c	-0.16802639
254	0xbd641caa	-0.0556914
255	0xbedb6097	-0.4284713
