rlcard/models/pretrained/leduc_holdem_nfsp_pytorch/model.pth (torch_old, 536673 bytes, 60 tensors)

fc_layers.1.weight f4 [36]
0	0x414a2a87	12.635383
1	0x40d97547	6.795566
2	0x41038163	8.219089
3	0x419981b5	19.188334
4	0xc10355d8	-8.208458
5	0x3f4081b5	0.7519792
6	0x3f800000	1.0
7	0xbfd1f053	-1.6401466
8	0xbf26e4d9	-0.65192944
9	0x3f800000	1.0
10	0x4014459f	2.3167493
11	0x3f800000	1.0
12	0xc01eabba	-2.4792314
13	0x3f800000	1.0
14	0xc025d2b3	-2.590985
15	0x3f800000	1.0
16	0x3f6d653b	0.9273259
17	0x3f800000	1.0
18	0x3f800000	1.0
19	0x3f800000	1.0
20	0x3f800000	1.0
21	0x3f800000	1.0
22	0xbf88c15a	-1.0684006
23	0x3f800000	1.0
24	0xbe5f734c	-0.21821326
25	0x3f800000	1.0
26	0x4097d30e	4.7445135
27	0x3f800000	1.0
28	0x3e27417a	0.16333571
29	0x3f800000	1.0
30	0xc02e6a92	-2.7252545
31	0x3f800000	1.0
32	0x405f64aa	3.490519
33	0x3f800000	1.0
34	0x3f167744	0.58775735
35	0x3f800000	1.0

fc_layers.1.bias f4 [36]
0	0x40a7e1ae	5.246299
1	0xbfc06a30	-1.5032406
2	0xbfb75d0c	-1.4325271
3	0xc0ed63f2	-7.4184504
4	0xc0b4c76b	-5.649343
5	0xbf895252	-1.0728247
6	0xbf9df696	-1.2340877
7	0x3e2ffa65	0.17185362
8	0x3ebe0b95	0.3711821
9	0x3fe84d42	1.8148577
10	0x3fc95a2f	1.5730647
11	0x3f58d366	0.8469757
12	0xc08fc8d6	-4.493266
13	0x3f32b5db	0.6980874
14	0x3fdaa697	1.7082089
15	0xbf99d2d0	-1.201746
16	0xc0b91b8b	-5.784612
17	0x3fd9bf22	1.7011454
18	0xc015ab4b	-2.33858
19	0xbfb8f08b	-1.4448408
20	0x3fee89b9	1.863578
21	0x40158ce7	2.336725
22	0x400b92cf	2.1808355
23	0x3f758df8	0.9591975
24	0xbf49fa3e	-0.78897464
25	0xbf6d5d6a	-0.92720664
26	0xbf1e446b	-0.6182315
27	0x4039f48e	2.9055514
28	0xbfeeb183	-1.8647922
29	0xbf5c9fc4	-0.86181283
30	0xc04f6e54	-3.241109
31	0xbfb32bfd	-1.3997799
32	0x4065dd44	3.59163
33	0xc00a7a93	-2.1637313
34	0xc0b191ca	-5.5490465
35	0xbe92363c	-0.28557003

fc_layers.1.running_mean f4 [36]
0	0x3ea53d06	0.3227312
1	0x3ea9d3ea	0.3316949
2	0x3eb0ef10	0.3455739
3	0x3e0cdf50	0.13757062
4	0x3e12a400	0.14320374
5	0x3e0eccd0	0.13945317
6	0x00000000	0.0
7	0x3e6e3015	0.2326053
8	0x3ea8e9f2	0.32990986
9	0x00000000	0.0
10	0x3e797621	0.24361469
11	0x00000000	0.0
12	0x3e014048	0.12622178
13	0x00000000	0.0
14	0x3d0326c6	0.0320194
15	0x00000000	0.0
16	0x3d11efab	0.035628956
17	0x00000000	0.0
18	0x00000000	0.0
19	0x00000000	0.0
20	0x00000000	0.0
21	0x00000000	0.0
22	0x3ed4a0fa	0.41529065
23	0x00000000	0.0
24	0x3e75fb43	0.2402163
25	0x00000000	0.0
26	0x3e4068a8	0.18789923
27	0x00000000	0.0
28	0x3d36f15a	0.044663765
29	0x00000000	0.0
30	0x3d3560b7	0.044281688
31	0x00000000	0.0
32	0x3d0326c6	0.0320194
33	0x00000000	0.0
34	0x3d11efab	0.035628956
35	0x00000000	0.0

fc_layers.1.running_var f4 [36]
0	0x3e5ffd99	0.21874084
1	0x3e6378e4	0.22214085
2	0x3e67ce32	0.22637251
3	0x3df308df	0.118669264
4	0x3dfb8c84	0.122826606
5	0x3df537e8	0.11973554
6	0x00000004	6e-45
7	0x3e364b41	0.17802145
8	0x3e628a41	0.22123052
9	0x00000004	6e-45
10	0x3e3d076e	0.18459865
11	0x00000004	6e-45
12	0x3de20756	0.110365555
13	0x00000004	6e-45
14	0x3cfe2238	0.031022176
15	0x00000004	6e-45
16	0x3d0cff40	0.034423113
17	0x00000004	6e-45
18	0x00000004	6e-45
19	0x00000004	6e-45
20	0x00000004	6e-45
21	0x00000004	6e-45
22	0x3e78ce5a	0.24297467
23	0x00000004	6e-45
24	0x3e3b3dd1	0.182853
25	0x00000004	6e-45
26	0x3e1c3795	0.15255578
27	0x00000004	6e-45
28	0x3d2ecb4e	0.042674355
29	0x00000004	6e-45
30	0x3d2d7a1d	0.042352784
31	0x00000004	6e-45
32	0x3cfe2238	0.031022176
33	0x00000004	6e-45
34	0x3d0cff40	0.034423113
35	0x00000004	6e-45

fc_layers.2.weight f4 [128, 36]
0	0x3f5f0afc	0.87126136
1	0x3e52895e	0.20560214
2	0xbf22b8da	-0.6356331
3	0xc0d56902	-6.6690683
4	0xbf70a8c6	-0.9400753
5	0x3f0c7472	0.5486518
6	0xc00c6f55	-2.1942952
7	0x3fecc633	1.8497986
8	0xbf2e3a9d	-0.68058187
9	0xbe8f4420	-0.27981663
10	0xbf2f8d86	-0.6857532
11	0xbfce8e14	-1.6137109
12	0xbec0b232	-0.37635952
13	0xbf536f12	-0.82591355
14	0x3f4685e0	0.7754803
15	0x3ea7b3ba	0.32754308
16	0xc0eb35ff	-7.3503413
17	0xbec85e07	-0.39134237
18	0xbdde13ac	-0.10843596
19	0x3fb2e265	1.397534
20	0xbe82ebd5	-0.2557055
21	0xbe1330f6	-0.14374146
22	0xbf9b0a63	-1.2112545
23	0xbf1f7564	-0.622885
24	0xbf515e48	-0.81784487
25	0x3f164a7a	0.5870739
26	0xc09ff43d	-4.9985642
27	0x3e15b780	0.14620781
28	0xc090f8ab	-4.530355
29	0xc0049385	-2.0715039
30	0x3efa07d5	0.488341
31	0x3ff5dc8f	1.9207934
32	0x3f7a3d50	0.97749805
33	0x3e96818f	0.2939572
34	0xc0e74e7c	-7.2283306
35	0x3f45c704	0.772568
36	0xbff731c9	-1.9312068
37	0xc0252b59	-2.5807707
38	0x400c6f61	2.194298
39	0xbeec79b2	-0.46186596
40	0x40b0a4e1	5.520127
41	0xc06a81c2	-3.6641698
42	0xbfc08d18	-1.5043058
43	0x3eac0b86	0.33602542
44	0x3f10663c	0.56406
45	0xc0c7c878	-6.2432213
46	0xc052dfda	-3.2949128
47	0xc097972f	-4.737205
48	0x4020eee2	2.5145802
49	0xc07d4df3	-3.9578826
50	0xc07ae504	-3.920228
51	0x40c04e85	6.009585
52	0x3efce537	0.49393627
53	0xc0d0d362	-6.5258036
54	0x40ced8f9	6.463986
55	0x40a3cfaf	5.119102
56	0xc0d0bba3	-6.522905
57	0xc0d6ed13	-6.7164397
58	0xc08c8782	-4.3915415
59	0xc0ba7c3b	-5.827665
60	0xbf549ec7	-0.83054775
61	0x40b254b6	5.5728407
62	0x403efe84	2.9842844
63	0xc0c681c3	-6.20334
64	0xc052fe5b	-3.2967746
65	0xbfe90585	-1.820481
66	0xbfc25fdd	-1.5185505
67	0x40b6bc04	5.710451
68	0xc04d0f75	-3.2040684
69	0x40d82865	6.754931
70	0x3fce7ed4	1.6132455
71	0x403db143	2.9639442
72	0xc0b599f3	-5.6750426
73	0x3f029489	0.51007897
74	0x40178578	2.3675213
75	0x3f512ebc	0.81711936
76	0x40206077	2.5058877
77	0xbf28c6bf	-0.6592826
78	0x40cf4961	6.4777074
79	0xbe79e94e	-0.24405405
80	0x3e8604c0	0.261755
81	0xc0ec2562	-7.3795633
82	0xbf3884a7	-0.7207741
83	0xc083e1d6	-4.121318
84	0x41030f36	8.191214
85	0xc043a6bb	-3.0570514
86	0xc0e5d377	-7.1820636
87	0x40c6a2c1	6.2073674
88	0x401524c7	2.3303697
89	0xc0e1ac3a	-7.0522738
90	0x410012fe	8.004637
91	0x40ad0670	5.407036
92	0xc0e535fd	-7.1628404
93	0xc1036521	-8.21219
94	0xc009f06f	-2.1553
95	0xc0c160c5	-6.0430627
96	0xc0270e02	-2.61023
97	0x40b0579b	5.510694
98	0x3fc58e94	1.5434136
99	0xc1063931	-8.388963
100	0x3f0798a2	0.52967274
101	0x40a695b6	5.2057753
102	0x4119064d	9.564038
103	0x40d57190	6.6701126
104	0xc10cc312	-8.797625
105	0x40f9d607	7.8073764
106	0x4007799c	2.1167974
107	0x3e6c3421	0.2306676
108	0x3e094a37	0.13407217
109	0xbf4c7254	-0.7986195
110	0x3fd4fbc8	1.6639338
111	0xc0d98323	-6.797258
112	0xc0226212	-2.5372357
113	0xbf9b3853	-1.2126564
114	0xc083df65	-4.12102
115	0x40a8d29b	5.2757087
116	0x3e47931a	0.19489709
117	0xc000ded3	-2.0136
118	0xc066ee5e	-3.6082988
119	0xc0b79072	-5.7363825
120	0xc09888a9	-4.766682
121	0xc0b4ec7e	-5.6538687
122	0x40b1d7bc	5.557585
123	0x3ff04fa2	1.8774302
124	0x3ecf846d	0.4053072
125	0xbfeab1be	-1.8335493
126	0x3fb4ddd6	1.4130199
127	0x40af1448	5.4712257
128	0xbfbb16e7	-1.4616364
129	0xbfb8b872	-1.4431288
130	0x40c5f594	6.186228
131	0xc053d8ff	-3.3101194
132	0xc06bb38b	-3.6828334
133	0x40586699	3.381262
134	0xc06a3bd8	-3.6599026
135	0xbee296e8	-0.44255757
136	0x40ccf42f	6.4048076
137	0xc08f47b2	-4.477502
138	0xc026b347	-2.6046922
139	0x40a30d5e	5.0953817
140	0x40da96c4	6.830904
141	0x3ff6079d	1.9221073
142	0x3f886058	1.0654402
143	0x40a969a6	5.2941465
144	0x3ebad79f	0.3649263
145	0xc0e9c381	-7.305115
146	0x40c051e4	6.0099964
147	0x3eec39e4	0.46137917
148	0xc037502a	-2.8642678
149	0x3eba28f3	0.36359367
150	0xc048b577	-3.1360757
151	0x406f42eb	3.7384593
152	0xbf9a66fa	-1.2062676
153	0x4036caff	2.85614
154	0x3ed1ac2b	0.40951666
155	0x3f8ba1a7	1.0908707
156	0xc095de39	-4.683377
157	0x3fa0ef69	1.2573062
158	0x40028ae3	2.039727
159	0xc034133e	-2.8136744
160	0xc0c5aa5d	-6.1770463
161	0x4033763b	2.8040912
162	0xc04b0be7	-3.1726015
163	0xc022db6d	-2.5446427
164	0x40392281	2.892731
165	0x40604f65	3.5048459
166	0x409059ef	4.510978
167	0x402a8bb7	2.6647775
168	0xc00099bc	-2.0093832
169	0xc020e034	-2.5136843
170	0xbec816bb	-0.39079842
171	0x407e4d62	3.973473
172	0xbf0a6bb9	-0.5407062
173	0xc03a8e5b	-2.9149387
174	0xc027d412	-2.6223187
175	0xbffb0522	-1.9610941
176	0x403bf25c	2.9366674
177	0xc04d3113	-3.2061203
178	0xc09fc1da	-4.9924135
179	0x3eac8565	0.33695522
180	0xc0a4742b	-5.1391807
181	0xbf660e52	-0.898656
182	0x40b8f04e	5.779334
183	0xc0483f5e	-3.1288676
184	0x402a28d9	2.6587431
185	0xbeaed206	-0.3414461
186	0x401537b9	2.331526
187	0xbfb59b25	-1.4187971
188	0xbd6f8b1e	-0.058482282
189	0xc0805718	-4.0106316
190	0xbedc25ce	-0.42997593
191	0xc014dacc	-2.3258543
192	0x4088b291	4.2717977
193	0xbfcd6084	-1.6045079
194	0x3eb62d06	0.35581225
195	0x40700b71	3.7506983
196	0x3dc1e980	0.09468365
197	0xc08492d8	-4.1429253
198	0x408c961e	4.393325
199	0x403394f9	2.8059676
200	0xc08e63c4	-4.4496784
201	0xc08e1f44	-4.4413166
202	0xbfe97c61	-1.8241082
203	0xc05075d8	-3.2571926
204	0x3e47e390	0.19520402
205	0x40491a84	3.1422434
206	0x3fc65b93	1.5496696
207	0xc09f37a7	-4.9755435
208	0xbeb060f5	-0.34448972
209	0x401eca92	2.481114
210	0x40559978	3.337492
211	0x4056b267	3.3546388
212	0x3ff32a13	1.8997215
213	0x408ba033	4.3633056
214	0xbf204f79	-0.62621266
215	0x39c70e59	0.00037966928
216	0x3ffcd303	1.9751896
217	0xc02aec2b	-2.6706645
218	0x4030dc1c	2.7634344
219	0xc1032ff8	-8.199211
220	0xc0094b9e	-2.1452403
221	0x3ff8b9e2	1.9431727
222	0x3fee8b89	1.8636333
223	0xbfadcee9	-1.3578769
224	0x3fb8ca8a	1.443681
225	0x3f8fb260	1.1226311
226	0xbee2c584	-0.44291317
227	0x40237d39	2.554518
228	0x3f4ecd3e	0.80781925
229	0x4028da18	2.6383114
230	0x3fb46986	1.4094703
231	0xbf9813b4	-1.1881013
232	0x402833eb	2.6281688
233	0x3f80e993	1.0071281
234	0xbf4f1e51	-0.80905634
235	0xbff6d415	-1.9283472
236	0x3f6627db	0.89904565
237	0x3f5a8e01	0.8537293
238	0xc0041be6	-2.0642028
239	0x3fa19f5b	1.2626756
240	0x40292acc	2.643237
241	0xbfa28e72	-1.2699721
242	0x3ec8eed3	0.39244708
243	0x3f0e9679	0.55698353
244	0xc0f55371	-7.6664357
245	0x4003fa3c	2.062148
246	0xbf86103c	-1.0473704
247	0xc00d39d7	-2.2066553
248	0x4018b7db	2.3862216
249	0xbf7316b4	-0.9495652
250	0x401fc7bd	2.496566
251	0xc022c5df	-2.543327
252	0xbefdb24a	-0.49550086
253	0xbdebc435	-0.11512033
254	0x3f5afa0e	0.85537803
255	0xc11c7f60	-9.781097

fc_layers.2.bias f4 [128]
0	0x3f5994ec	0.8499286
1	0xbff81480	-1.9381256
2	0xc04cb635	-3.198621
3	0xc004be8e	-2.0741305
4	0x3e8d3c3c	0.27585018
5	0xbe27b641	-0.16378118
6	0x3ff91a87	1.946122
7	0xbe8c2b31	-0.27376702
8	0xbf815c5d	-1.0106312
9	0xbf89c809	-1.0764171
10	0x3f84440e	1.0333269
11	0x3ea017c2	0.31268126
12	0x3f9a4fe4	1.2055631
13	0x40121e2e	2.283092
14	0x3fe12f37	1.7592534
15	0x3f710936	0.9415468
16	0x3fc572f2	1.5425704
17	0x3dfcd352	0.12344994
18	0x3ff6e746	1.9289329
19	0x3f5a20d7	0.8520636
20	0x3f3273c4	0.69707894
21	0x403ff60a	2.999392
22	0xbfc3ea5d	-1.5305897
23	0xbfcaa450	-1.5831394
24	0x3f9d913a	1.2309945
25	0xbfc78db6	-1.5590122
26	0xc06b31ef	-3.6749227
27	0x3db7be3a	0.0897183
28	0xc0268acc	-2.6022215
29	0xbf7f8505	-0.99812347
30	0xbf1d3f2b	-0.6142451
31	0x3f95e02d	1.1709038
32	0x3ff6df82	1.9286959
33	0x3f5b8d18	0.85762167
34	0x3eb7b968	0.3588364
35	0x3f82372e	1.017309
36	0x3f96154a	1.1725247
37	0xbf2ff265	-0.6872924
38	0xc0b00f89	-5.5018964
39	0xc009e3c8	-2.1545277
40	0x3f59613c	0.8491399
41	0x3f55f220	0.8357258
42	0x3fa3e3bf	1.2803878
43	0xbf2e048f	-0.67975706
44	0xc00b705e	-2.1787333
45	0x3fc36757	1.5265912
46	0xbef8419b	-0.48487553
47	0xbe89b4a7	-0.2689564
48	0x3f0697e1	0.525755
49	0xbdb00030	-0.08593786
50	0xc09c4923	-4.883928
51	0xbf00e033	-0.503421
52	0xbe7f7a97	-0.24949108
53	0xbf287754	-0.6580708
54	0xbfbd6756	-1.4797161
55	0xbe24971b	-0.16073267
56	0x405ee3e1	3.4826586
57	0xbf857a97	-1.0428036
58	0x3f8fd09c	1.1235538
59	0xc0725ec2	-3.7870336
60	0x3ebe944f	0.37222525
61	0xc002d8a1	-2.044472
62	0x401059e9	2.2554877
63	0x3fb38309	1.4024364
64	0xbff74d34	-1.9320436
65	0xbeeb8c7c	-0.4600562
66	0xbe99d5f9	-0.3004606
67	0xbf76c1a2	-0.9638921
68	0xc0560019	-3.343756
69	0x3f812548	1.0089502
70	0xbef3edea	-0.47642452
71	0xc048be58	-3.1366177
72	0x4053868c	3.305087
73	0xbfcd91e8	-1.6060152
74	0xbfdac0d6	-1.7090099
75	0x3fe27225	1.7691084
76	0xbef05ba7	-0.46944925
77	0xc0326a2c	-2.7877302
78	0xc029c991	-2.6529276
79	0x3fdad894	1.7097344
80	0x401d485a	2.457541
81	0x3fad816d	1.3555123
82	0xbf790ebf	-0.97288126
83	0xbff47912	-1.9099448
84	0x3ee0aa29	0.43879822
85	0xbfabb2e5	-1.3413969
86	0xc05ced4d	-3.4519837
87	0x4024e53c	2.5764914
88	0xc0a7f52d	-5.2486787
89	0xc05f2267	-3.4864748
90	0xbf7dbbcd	-0.99114686
91	0xc03eaf09	-2.9794333
92	0x403863be	2.8810878
93	0xbeffe0f5	-0.49976316
94	0x3eb2ffb0	0.349607
95	0xc05d9346	-3.4621139
96	0xc0700dd2	-3.7508435
97	0x407cba36	3.9488654
98	0xc00998ab	-2.149943
99	0xbf80bd48	-1.0057764
100	0x3eec80ff	0.46192166
101	0x3f957387	1.1675881
102	0x400cb238	2.1983776
103	0x404dbd70	3.2146873
104	0xbe35fb0b	-0.17771547
105	0xc04938ba	-3.1440873
106	0x404ba7c7	3.1821153
107	0xbfba8c11	-1.4573995
108	0xbfd1214e	-1.6338289
109	0xbfa1775b	-1.2614549
110	0xc02ad997	-2.6695306
111	0x3f5ce112	0.8628093
112	0xbfbb6da5	-1.4642836
113	0xc0027603	-2.0384529
114	0xc0167abf	-2.3512418
115	0xc0228b67	-2.5397584
116	0xc00f1491	-2.2356303
117	0xbf13f4ed	-0.577956
118	0xc07027d2	-3.7524304
119	0x3f8d648a	1.1046307
120	0x3ffa608b	1.9560713
121	0xbfa58667	-1.2931641
122	0xbf121020	-0.57055855
123	0x3fd3f8cf	1.6560305
124	0xc08e2786	-4.4423246
125	0x3f0dcd9f	0.5539188
126	0x4000d7c5	2.0131695
127	0x3f1d73fa	0.6150509

fc_layers.4.weight f4 [128, 128]
0	0xc091b513	-4.553354
1	0x40566f03	3.3505256
2	0x40ea7606	7.326907
3	0xc067cde0	-3.6219406
4	0xc01dc3ac	-2.4650679
5	0x40bc23d9	5.879376
6	0x4034f28e	2.8273044
7	0x3f87cd1b	1.0609468
8	0x4046e18a	3.1075158
9	0x408d4c74	4.4155827
10	0x4103ce95	8.237935
11	0xc096602c	-4.6992397
12	0xbe80d13b	-0.2515963
13	0xc04b41c8	-3.17589
14	0xbf541f77	-0.8286051
15	0xc07db81d	-3.9643624
16	0x3f4913e3	0.7854597
17	0xbe4a7f17	-0.19775043
18	0x3fc6bdb6	1.5526645
19	0x3c244ff5	0.010028829
20	0xc010b3d4	-2.2609758
21	0x3fc2c3bf	1.5215987
22	0xc0f0fd0a	-7.5308886
23	0xbf842be6	-1.0325897
24	0x404a713e	3.1631618
25	0x404870da	3.131888
26	0x4085722b	4.1701865
27	0x3f09d7fa	0.5384518
28	0x3f24c1c7	0.6435818
29	0x40b2fa0e	5.5930243
30	0x400dfefd	2.2186882
31	0xc0b0555f	-5.5104213
32	0xc11563dd	-9.336881
33	0xc030dd65	-2.7635128
34	0xc016c4ea	-2.3557687
35	0xbf13a218	-0.5766921
36	0xbf4edb5f	-0.80803484
37	0xc129b484	-10.606571
38	0xc0048aa8	-2.070963
39	0xc121c76c	-10.111187
40	0xc1371851	-11.443437
41	0xc098bad7	-4.7728076
42	0xc073cf26	-3.8095183
43	0x4028a973	2.6353424
44	0x4045ce33	3.0907104
45	0x4125ce58	10.362877
46	0x40d89962	6.7687235
47	0xbfcd1e94	-1.6024957
48	0xc0e22992	-7.0675745
49	0xbfa453f6	-1.2838123
50	0x406971eb	3.647578
51	0xbfbd24a0	-1.4776802
52	0x3e7dbdd3	0.24779443
53	0xbf2c993b	-0.6742131
54	0x3f01090a	0.5040442
55	0x40815fb9	4.042935
56	0x3d0ee26a	0.034883894
57	0x4084e29f	4.1526637
58	0xbfec6264	-1.8467526
59	0x3ff8691e	1.9407079
60	0x3fa6c9ef	1.3030375
61	0x408aaff2	4.3339777
62	0xc02d6638	-2.709364
63	0xc0d6d6f0	-6.7137375
64	0x40c5a4c2	6.176362
65	0xbf85b707	-1.044648
66	0xbfeb32c9	-1.8374873
67	0x40a4a151	5.144692
68	0xc00d9bab	-2.2126262
69	0xc0991d43	-4.784822
70	0xc01d18a1	-2.4546282
71	0x3f200f6f	0.6252355
72	0xc0f02824	-7.5049
73	0x3faee95b	1.3664964
74	0xc104d679	-8.3023615
75	0xbffdabd4	-1.9818063
76	0xbf25fba2	-0.64837086
77	0x4098d667	4.776172
78	0x40617b80	3.5231628
79	0xc05fdf85	-3.4980175
80	0x3f7ac5c4	0.97958016
81	0x3fa7af2e	1.3100336
82	0xc05ed9fa	-3.4820542
83	0xbe252939	-0.16129006
84	0xc004832d	-2.0705063
85	0x3feba92a	1.8411
86	0x4072344a	3.7844415
87	0xc08bb95f	-4.3663783
88	0x40c377f1	6.1083913
89	0x3f8995d6	1.0748851
90	0x4011a1ef	2.2755086
91	0x3f774120	0.9658375
92	0xbff99079	-1.9497215
93	0x40951ff0	4.6601486
94	0xc0aeb509	-5.459599
95	0xbe946943	-0.28986558
96	0x3fa6a264	1.3018308
97	0xbfbbe06a	-1.4677861
98	0xc0124e42	-2.2860265
99	0xbfd9f2e9	-1.7027255
100	0x3fde77f1	1.7380353
101	0xc0c96731	-6.2938466
102	0x408a0993	4.3136687
103	0xc01bd003	-2.434571
104	0x3ba995ba	0.0051753195
105	0xbeb5a003	-0.35473642
106	0xbfc410a8	-1.5317583
107	0x408e185b	4.440473
108	0x3e3a0424	0.18165642
109	0xbfb302c2	-1.3985217
110	0xc0bfbab6	-5.991542
111	0x40c25fbe	6.0741873
112	0x3dcea660	0.10090327
113	0xc01e8011	-2.4765666
114	0x40a3baf4	5.1165714
115	0x401fc50d	2.496402
116	0x3fb9b93f	1.4509658
117	0xbe5e825d	-0.21729417
118	0x3e8c0fcc	0.27355802
119	0xc10d0ebd	-8.816098
120	0xbf81bc4f	-1.0135592
121	0xc0260eca	-2.5946527
122	0x406016d7	3.501394
123	0xbdbdaef0	-0.09261882
124	0x401e8fe0	2.4775314
125	0xbe0338e5	-0.12814672
126	0xc0307c97	-2.7576044
127	0x3fee42f1	1.8614179
128	0xbf941ee1	-1.1571923
129	0xbeb809dd	-0.35945025
130	0x3e63705e	0.22210833
131	0x3fe7a598	1.809741
132	0xc09467f1	-4.637688
133	0xc074869f	-3.8207166
134	0xbf3a3e67	-0.7275147
135	0xc042e18a	-3.0450158
136	0x40d9b309	6.803105
137	0xc0cbccf4	-6.3687687
138	0xc0901b90	-4.5033646
139	0xc0bd7446	-5.9204435
140	0x3e86008f	0.261723
141	0xc0609c9e	-3.5095592
142	0xc03815d7	-2.876333
143	0x3f4fa4f5	0.8111108
144	0xbf9bbaf1	-1.2166425
145	0xc004b1a5	-2.0733426
146	0xbe50abeb	-0.20378082
147	0xc0779a47	-3.8687913
148	0xbfc66900	-1.5500793
149	0xc013f8cb	-2.31206
150	0xbec88c1b	-0.39169392
151	0x3f1bcfca	0.60863936
152	0x4088f301	4.2796636
153	0x3fac1a69	1.344556
154	0x404cc334	3.1994143
155	0x407d54c0	3.9582977
156	0x40f9e403	7.8090835
157	0x3f142bc5	0.57879287
158	0x3f0a6dbe	0.54073703
159	0xbf296065	-0.6616271
160	0xc08318cf	-4.0967784
161	0xc0852cd4	-4.161722
162	0x3fa0e322	1.2569315
163	0x40112e29	2.2684424
164	0xc0be1966	-5.9406004
165	0xbfc28446	-1.5196617
166	0x3fffe860	1.999279
167	0xbf0cf18d	-0.5505608
168	0xbf9dd355	-1.2330118
169	0x40786c39	3.8816054
170	0xc079d80c	-3.9038115
171	0xbf0e82db	-0.5566842
172	0x3f83c4d8	1.0294447
173	0x3f5e3582	0.86800396
174	0x40229e94	2.5409288
175	0xbf19daa3	-0.6009924
176	0xc05a7ada	-3.4137483
177	0x408e8446	4.4536467
178	0x3f0c998b	0.5492179
179	0x3fd4b8fc	1.6618953
180	0x405a72d5	3.4132588
181	0x3ff91f92	1.946276
182	0x40768262	3.851708
183	0x3ffccce0	1.9750023
184	0xc0800945	-4.0011315
185	0x4016c627	2.3558443
186	0xbfe0997d	-1.7546841
187	0x3fed3927	1.8533067
188	0xbed43237	-0.4144456
189	0xc076e724	-3.8578577
190	0xbf16b246	-0.58865774
191	0xbf8f5e18	-1.120059
192	0xc068c028	-3.6367283
193	0x40d2546d	6.572806
194	0x3f3febea	0.7496935
195	0xbff47ef9	-1.9101249
196	0xc01d78c7	-2.4604967
197	0xbf83925c	-1.027904
198	0x3ea7ffbe	0.32812303
199	0xc039c12b	-2.902415
200	0x40b45aba	5.636075
201	0xc083fad2	-4.1243677
202	0xbec9de4d	-0.39427415
203	0xbfafc913	-1.3733238
204	0xbf87d267	-1.0611085
205	0x402dc303	2.7150276
206	0x3fa1685d	1.2609974
207	0xbfa7b0f6	-1.3100879
208	0x3d6586d8	0.0560368
209	0x402d8bd8	2.7116604
210	0x4014ba3d	2.323867
211	0xbf41f740	-0.757679
212	0x40957018	4.6699333
213	0xc06ff889	-3.7495444
214	0x3fd85ed2	1.6903937
215	0x3d4de167	0.05026379
216	0xbf8e4896	-1.1115901
217	0x3f436c21	0.76336867
218	0x3f432a52	0.7623645
219	0xc02f5a26	-2.7398772
220	0xbf57cb5d	-0.8429468
221	0xbe0097da	-0.12557927
222	0xc0a3945d	-5.1118608
223	0x40a1fd0a	5.0621386
224	0x3f75b07a	0.95972407
225	0xc085f4d9	-4.1861386
226	0x3e20fe00	0.15721893
227	0xc04cb1c9	-3.1983511
228	0x3f4cad5a	0.79952013
229	0xbfd3701c	-1.6518588
230	0xbfdd1106	-1.727082
231	0xbf1aee48	-0.6051984
232	0xc01b6c6f	-2.4284933
233	0x4023e07d	2.5605767
234	0x4082f4b4	4.092371
235	0x40bf3e9a	5.976392
236	0x3fa343a1	1.2755014
237	0x40af139f	5.471145
238	0x3f92266a	1.1417973
239	0x401ae3d8	2.4201565
240	0xbf148ec5	-0.5803035
241	0x3f9d6eec	1.2299476
242	0x3fbaf5b4	1.4606233
243	0x40839462	4.111863
244	0xbfeedda3	-1.8661388
245	0x4046feb4	3.1092958
246	0x41037d8b	8.21815
247	0xbf27714a	-0.6540724
248	0x3ed568f6	0.4168164
249	0xc018d532	-2.3880124
250	0x40cee3a1	6.4652867
251	0xc03d3ca0	-2.9568253
252	0x40802b85	4.0053124
253	0xbf628f7e	-0.885002
254	0xc04503fa	-3.0783677
255	0x3f09bc9b	0.53803414

fc_layers.4.bias f4 [128]
0	0xbb3ee519	-0.0029128252
1	0xbf113d5d	-0.5673426
2	0xc013a0ae	-2.306682
3	0xc02fc110	-2.7461586
4	0xbe9f51e0	-0.31117153
5	0xbfd364b9	-1.6515113
6	0x3f13334b	0.5750014
7	0x408cc580	4.399109
8	0xc0874169	-4.2267346
9	0xc088c933	-4.2745605
10	0x3f21521a	0.630159
11	0xc00aa682	-2.1664128
12	0xc0916610	-4.543709
13	0xbeed2347	-0.46315977
14	0x403b29ac	2.9244184
15	0xc081f847	-4.0615573
16	0x400d35f5	2.2064183
17	0x4054da42	3.3258214
18	0xbf5ceba0	-0.86297035
19	0x3f01cc37	0.5070223
20	0x409ac77b	4.8368506
21	0xc0c7a3e5	-6.2387567
22	0xbf92a434	-1.1456361
23	0x3f3fb3be	0.7488364
24	0x401b4766	2.4262328
25	0xbfa14c8f	-1.2601489
26	0x3eb023b0	0.34402227
27	0x3f83e2c8	1.0303583
28	0x3f7ca3d5	0.9868749
29	0xc0762727	-3.8461397
30	0xc0082163	-2.1270378
31	0x401a0134	2.4063234
32	0xbf7929e3	-0.9732954
33	0x3fee2af8	1.8606863
34	0xc0d0c761	-6.5243382
35	0x3f14d374	0.5813515
36	0x4021cda7	2.528177
37	0x400ded8d	2.217624
38	0xbf28083c	-0.65637565
39	0x3f92a1e0	1.145565
40	0xbf61f2d9	-0.8826118
41	0xbfa32cb0	-1.2748013
42	0xbf9225ee	-1.1417825
43	0x406ccb6e	3.6999164
44	0x3e7f7657	0.24947487
45	0xc01a64be	-2.4123988
46	0xc0a8bea5	-5.273272
47	0xbe0e8c1b	-0.13920633
48	0x40175b46	2.364946
49	0xc0ba32a9	-5.818684
50	0xc0645b15	-3.5680592
51	0xc03d2614	-2.955449
52	0xc0915940	-4.542145
53	0xc02fb903	-2.7456672
54	0x3fa9c6ee	1.3263834
55	0x4092f169	4.591969
56	0xc0246f69	-2.5693
57	0xbf5ad235	-0.85477
58	0x3e982427	0.29715082
59	0xc0538525	-3.3050015
60	0xc00f483e	-2.2387843
61	0x401bb100	2.4326782
62	0x405ffb7c	3.4997244
63	0xc0331eaf	-2.7987478
64	0x3f10b65f	0.56528276
65	0x4042161b	3.0325992
66	0x3e87c437	0.26516888
67	0x3fe6851d	1.8009373
68	0x40a5937f	5.174255
69	0xbf86465e	-1.0490224
70	0xbf9dde17	-1.2333401
71	0xc018f9a0	-2.390236
72	0xc0b203a8	-5.5629463
73	0xbf79126f	-0.9729375
74	0x3fb3eda6	1.40569
75	0x40875957	4.2296557
76	0xbf094370	-0.53618526
77	0x40849aaa	4.14388
78	0xc0066a84	-2.1002512
79	0x40b24f9b	5.5722175
80	0x406845c6	3.6292586
81	0xbed1961a	-0.4093483
82	0xc0102803	-2.2524421
83	0x3f33e6d6	0.702741
84	0x3e3a72fa	0.18207923
85	0xc0864f5c	-4.1971874
86	0xbf59ee9d	-0.8512972
87	0x3fc757ab	1.5573629
88	0x4014f635	2.3275273
89	0x3f9bdbe1	1.2176477
90	0xc07983fa	-3.8986802
91	0x3ffda99c	1.9817386
92	0x3ff5c6e8	1.9201326
93	0x402c1f5a	2.6894135
94	0xbf7d24fc	-0.9888456
95	0xc027ab7f	-2.6198423
96	0xc036914f	-2.852619
97	0xbfc2416f	-1.5176219
98	0x409b2cb6	4.849208
99	0xc0266ba0	-2.600319
100	0x3ff66fe9	1.9252902
101	0x3fab4ada	1.3382218
102	0x4051e852	3.2798047
103	0x3d06a877	0.032875504
104	0xc05c4642	-3.4417882
105	0x402b49b6	2.676374
106	0xc0d0ba50	-6.522743
107	0xbf5d0c39	-0.86346775
108	0xbfe074bb	-1.7535623
109	0xc030cc8f	-2.7624853
110	0xc00bb442	-2.182877
111	0xbf8f5fcd	-1.1201111
112	0x3f76d6a8	0.9642129
113	0xc0892219	-4.2854123
114	0xc095716a	-4.6700945
115	0xc02f7a83	-2.7418525
116	0x3fcd5d8f	1.6044177
117	0x3dde740f	0.1086198
118	0xbef440f4	-0.47705805
119	0x40c82978	6.255062
120	0x401c5cb2	2.4431577
121	0xc066820b	-3.6016872
122	0x4081e37e	4.05902
123	0x3ff899fb	1.9421991
124	0xbfcba1de	-1.5908773
125	0x40585ff7	3.3808572
126	0xc01df809	-2.4682639
127	0x4076b30b	3.854678

fc_layers.6.weight f4 [4, 128]
0	0xbe0a3ca7	-0.134997
1	0x3edc8273	0.43068275
2	0x3f51d3a0	0.8196354
3	0x3f6da9bd	0.92837125
4	0xbf0a149c	-0.539377
5	0x3e66e861	0.22549583
6	0x3f397999	0.7245117
7	0xbf189ada	-0.59611285
8	0x3ef0b512	0.47013146
9	0x3eb8719e	0.36024183
10	0x3e83266d	0.25615254
11	0x3e9f3b90	0.3110013
12	0xbedc1708	-0.4298632
13	0x3e9b0f41	0.30285075
14	0xbed27b2b	-0.41109595
15	0xbe8ae5d3	-0.27128467
16	0xbf1f5add	-0.6224802
17	0xbeb552b8	-0.35414672
18	0x3e9ed588	0.31022286
19	0x3f15d52c	0.585284
20	0xbde1a880	-0.11018467
21	0xbee339d4	-0.44380057
22	0x3ee37e8f	0.44432494
23	0xbe2a975a	-0.16659299
24	0xbe103086	-0.1408101
25	0x3f2f32fb	0.68437165
26	0xbe11ef61	-0.14251472
27	0xbe6f7876	-0.23385796
28	0x3fa35241	1.2759477
29	0xbf37a0a2	-0.7172948
30	0x3ec28ed5	0.37999597
31	0x3e4654b9	0.19368257
32	0x3ecaae0c	0.39585912
33	0x3dceef9b	0.10104295
34	0xbe7fd155	-0.24982198
35	0x3c746f81	0.014919163
36	0x3e32f551	0.17476393
37	0x3ea01b54	0.3127085
38	0xbe4b6a3f	-0.19864748
39	0x3f703ce0	0.9384289
40	0x3e6dcadf	0.2322192
41	0x3de5cd69	0.112208195
42	0x3edba6fc	0.42900836
43	0xbf244452	-0.6416675
44	0xbf88f0e5	-1.0698515
45	0xbe872bb7	-0.2640054
46	0xbf8771e8	-1.0581636
47	0x3e79cb85	0.24394043
48	0xbe4d43f0	-0.20045447
49	0xbf4889d4	-0.7833531
50	0x3f27c54e	0.6553544
51	0x3e23750a	0.15962616
52	0x3f0f808d	0.5605553
53	0xbea5d2f7	-0.32387516
54	0x3e84547f	0.25845715
55	0x3f5fff55	0.8749898
56	0xbee1900c	-0.44055212
57	0x3e39d465	0.18147428
58	0x3ebacf3f	0.3648624
59	0x3e3bb4ad	0.18330641
60	0x3e86bd79	0.2631643
61	0xbf7d042f	-0.9883451
62	0xbe46ff25	-0.19433267
63	0xbd883d72	-0.06652345
64	0x3eec6ade	0.46175283
65	0x3e46607a	0.1937274
66	0xbefb2057	-0.4904811
67	0xbeb769d8	-0.3582294
68	0xbf02c4a1	-0.5108128
69	0xbf4371c7	-0.76345485
70	0xbe5967f6	-0.21231064
71	0xbdac97d6	-0.08427398
72	0xbf0b58f8	-0.5443263
73	0x3eb522f5	0.35378233
74	0xbf4de0d8	-0.8042121
75	0x3e8559d6	0.26045102
76	0xbf8f41f2	-1.1192
77	0x3e0e4bdc	0.13896126
78	0x3f305a01	0.68887335
79	0x3f141cf7	0.57856697
80	0x3ed872ed	0.4227518
81	0x3df81e37	0.12115138
82	0x3ec4acd6	0.38413113
83	0xbe8fc099	-0.28076628
84	0xbf20fe26	-0.628878
85	0x3f697d4d	0.9120682
86	0xbfaf16ff	-1.3678893
87	0xbeb1c3ea	-0.34719783
88	0xbd094a44	-0.03351809
89	0x3e034642	0.1281977
90	0xbf3a9a3b	-0.72891587
91	0x3eaf0653	0.34184512
92	0x3eb9b8c6	0.36273783
93	0x3f39f704	0.7264254
94	0xbe1e6854	-0.15469486
95	0xbeee85f7	-0.46586582
96	0xbee733f6	-0.4515683
97	0x3f130d21	0.5744191
98	0xbed72889	-0.42023113
99	0xbe6c0ec8	-0.23052514
100	0x3ea6e901	0.32599643
101	0xbe85a0e5	-0.26099315
102	0x3ef5528a	0.47914535
103	0xbefc7acf	-0.49312446
104	0x3eda19bd	0.42597762
105	0x3e51b760	0.20480108
106	0xbef69ecd	-0.4816803
107	0xbea24d88	-0.31699777
108	0xbed02165	-0.40650478
109	0x3e561cb1	0.20909382
110	0x3f6cc3ca	0.9248625
111	0x3f0847a8	0.5323434
112	0x3eeca400	0.46218872
113	0xbd5f4021	-0.054504517
114	0xbee00f40	-0.43761635
115	0x3f7e882e	0.99426544
116	0x3f1bf145	0.60915023
117	0x3ed50d32	0.4161163
118	0xbee3fd1a	-0.4452904
119	0x3f6198ab	0.8812358
120	0xbe30a807	-0.17251597
121	0xbe19dc25	-0.15025385
122	0xbe942aa5	-0.28938785
123	0xbe0760bf	-0.132205
124	0xbe48d16b	-0.19611137
125	0xbe1ff1cc	-0.15619582
126	0x3d8e45b4	0.069468886
127	0xbec7513f	-0.38929173
128	0x3de013ed	0.109413005
129	0x3e79f2d3	0.24409036
130	0x3f35689c	0.70862746
131	0x3e26419d	0.16235967
132	0x3e2eb19f	0.17059945
133	0x3e0f2199	0.1397766
134	0x3e3da5dc	0.18520302
135	0xbef8bbd7	-0.4858081
136	0x3e7b6ae3	0.24552493
137	0x3e418b49	0.1890079
138	0x3e013724	0.1261869
139	0x3ebed495	0.37271562
140	0xbe912f28	-0.2835629
141	0x3f1294f7	0.5725855
142	0xbee2b890	-0.44281435
143	0xbdc64ed1	-0.09683002
144	0xbf1643fd	-0.5869749
145	0x3ec5a278	0.38600516
146	0x3e211c0e	0.15733358
147	0xbe83142b	-0.25601324
148	0xbeaf0ccd	-0.34189454
149	0xbd8e3789	-0.06944186
150	0xbe96aede	-0.29430288
151	0xbc754500	-0.014970064
152	0xbe154748	-0.14577973
153	0x3e96c8b3	0.29449996
154	0x3b8c3edc	0.0042799544
155	0x3ec8ff8c	0.39257467
156	0xbe739724	-0.23788124
157	0xbe23338f	-0.15937637
158	0xbde572f6	-0.11203568
159	0x3e56a088	0.20959675
160	0x3e03a1d1	0.12854697
161	0x3d1f075f	0.03882539
162	0x3e7d6aca	0.24747768
163	0x3cc75e02	0.024336819
164	0x3e2f6683	0.17128949
165	0xbeaf2813	-0.34210262
166	0x3c0c9095	0.008579393
167	0x3dd9a0f4	0.106264025
168	0x3ed10900	0.4082718
169	0x3f02dc5a	0.5111748
170	0x3e813c2d	0.25241223
171	0xbeed208c	-0.46313894
172	0xbf6e2553	-0.930257
173	0x3e3400ce	0.17578432
174	0xbe7a0d4a	-0.24419132
175	0x3df82516	0.121164486
176	0xbe0aaed6	-0.13543257
177	0xbd10c356	-0.035342537
178	0x3ee1cba5	0.4410068
179	0x3e414a1b	0.18875925
180	0xbe0f6105	-0.14001854
181	0xbdc298f3	-0.09501829
182	0xbe685cc6	-0.2269164
183	0x3e2e77a4	0.17037827
184	0xbf207df2	-0.6269218
185	0xbd107d10	-0.03527552
186	0x3f0fc497	0.5615935
187	0x3e49a7e6	0.19692954
188	0xbd99ce64	-0.07510069
189	0x3ea75843	0.32684526
190	0x3e96e302	0.29470068
191	0x3d9afc66	0.075676724
192	0x3ed2a828	0.41143918
193	0xbe575e30	-0.21032023
194	0xbed670d2	-0.4188295
195	0xbe7312c0	-0.23737621
196	0xbf0bade5	-0.54562217
197	0xbf3dd44c	-0.74152064
198	0xbde5edff	-0.11227035
199	0x3eba5783	0.3639489
200	0xbead07d5	-0.33795038
201	0x3e9d6cb8	0.30747008
202	0xbeb0ca0b	-0.34529147
203	0x3e939b2f	0.28829333
204	0xbf8005f5	-1.0001818
205	0x3eb69851	0.35663083
206	0x3eba1ad4	0.36348593
207	0x3e2f47c9	0.17117228
208	0xbea7c21f	-0.3276529
209	0xbc39ba58	-0.011335932
210	0x3d4a243c	0.049350962
211	0xbecfb545	-0.40567985
212	0x3e86deb4	0.26341784
213	0x3ec551da	0.3853901
214	0xbf6a82c7	-0.916058
215	0xbe4f5db1	-0.20250584
216	0x3d768fc2	0.060195692
217	0xbc954698	-0.018222138
218	0xbf3fa547	-0.7486157
219	0x3e3c7832	0.18405226
220	0xbdf3d0f8	-0.11905092
221	0x3ec223b9	0.3791788
222	0xbd5ba8de	-0.05362784
223	0x3e2d5467	0.16926728
224	0xbee11aec	-0.43965852
225	0xbe4eb69b	-0.20186846
226	0xbe07de0d	-0.132683
227	0xbe5672cc	-0.20942229
228	0x3e1de62e	0.15419838
229	0x3e81b0b9	0.2533014
230	0x3f1cf433	0.6131012
231	0xbe641d96	-0.22276911
232	0x3e90e93d	0.28302947
233	0x3d6d7b1f	0.057978746
234	0xbf085492	-0.53254044
235	0x3dbeac9e	0.09310268
236	0x3ed1111b	0.40833363
237	0x3d8df038	0.06930584
238	0x3e1685d6	0.14699492
239	0xbe2f0f2e	-0.17095634
240	0x3d7146f0	0.058905542
241	0x3be78736	0.007065679
242	0xbe843e31	-0.25828698
243	0x3f25905e	0.6467341
244	0x3ddf038a	0.10889347
245	0x3d70fcfe	0.058835022
246	0x3da2562f	0.079265945
247	0x3f829a39	1.0203315
248	0xbdcce2b9	-0.100041814
249	0xbdc2b745	-0.09507612
250	0xbee424dc	-0.4455937
251	0x3eb1fb42	0.34762007
252	0xbd994314	-0.07483497
253	0x3e31589f	0.17318963
254	0x3e889e11	0.26683095
255	0xbe93b6ca	-0.28850394

fc_layers.6.bias f4 [4]
0	0x3e17ec1b	0.14836161
1	0x3ea52ca3	0.32260618
2	0xbf71977d	-0.9437178
3	0x3ed9a893	0.42511424

fc_layers.1.weight f4 [36]
0	0x4124c10d	10.297132
1	0x4100f645	8.060124
2	0x40a6a619	5.2077756
3	0x41929b48	18.32582
4	0xc102897d	-8.158566
5	0x3fc1daf9	1.514495
6	0x3f800000	1.0
7	0xc01d81f5	-2.461057
8	0xbe95cf50	-0.2925973
9	0x3f800000	1.0
10	0x401ebcdb	2.4802768
11	0x3f800000	1.0
12	0xbb836048	-0.0040092804
13	0x3f800000	1.0
14	0x3fd4d878	1.6628561
15	0x3f800000	1.0
16	0x3eecaa97	0.462239
17	0x3f800000	1.0
18	0x3f800000	1.0
19	0x3f800000	1.0
20	0x3f800000	1.0
21	0x3f800000	1.0
22	0xbfdb3aed	-1.7127358
23	0x3f800000	1.0
24	0x3d3b3aee	0.045710497
25	0x3f800000	1.0
26	0x409e878a	4.9540453
27	0x3f800000	1.0
28	0x3dbb027e	0.09131335
29	0x3f800000	1.0
30	0xbf778305	-0.96684295
31	0x3f800000	1.0
32	0x40883f87	4.257755
33	0x3f800000	1.0
34	0x3d862ec2	0.06551887
35	0x3f800000	1.0

fc_layers.1.bias f4 [36]
0	0x40ad29de	5.4113607
1	0xbfa7f07e	-1.3120267
2	0xbfe9ac82	-1.825577
3	0xc0c6461c	-6.1960583
4	0xc0c64ce1	-6.1968846
5	0x3eaa6460	0.33279705
6	0xc01f64be	-2.4905238
7	0x3ffc3ba2	1.9705698
8	0xbeabbafd	-0.33541098
9	0x40227cc9	2.5388663
10	0x3fcf3391	1.6187612
11	0x3f541686	0.8284687
12	0xc0c099b8	-6.0187645
13	0x3f329a5b	0.6976678
14	0x401f5fa2	2.490212
15	0xc004a0b0	-2.0723076
16	0xc0c01774	-6.002863
17	0x40197387	2.3976762
18	0xc03e8ea9	-2.9774573
19	0xbfc62792	-1.5480826
20	0x4025b544	2.5891886
21	0x4040536f	3.0050924
22	0x405afca9	3.4216712
23	0x3fcdefe8	1.6088839
24	0xbf9f5970	-1.2449169
25	0xbfc918a4	-1.5710645
26	0xbf5c4427	-0.8604149
27	0x40663684	3.5970774
28	0xbf29a375	-0.6626504
29	0xc0090712	-2.1410565
30	0xc093f099	-4.62312
31	0xbfcc0055	-1.5937601
32	0x409a1ddd	4.8161454
33	0xc038cae1	-2.8873827
34	0xc0b8663d	-5.7624803
35	0x3e74a4d8	0.23891008

fc_layers.1.running_mean f4 [36]
0	0x3ea6f82d	0.32611218
1	0x3ea25ac3	0.3170987
2	0x3eb6ad11	0.35678914
3	0x3e0e5fca	0.13903728
4	0x3e11964c	0.1421749
5	0x3e09470a	0.13406006
6	0x00000000	0.0
7	0x3e719b41	0.23594381
8	0x3eaf1ee4	0.34203255
9	0x00000000	0.0
10	0x3e69cd1f	0.22832154
11	0x00000000	0.0
12	0x3df498c8	0.11943203
13	0x00000000	0.0
14	0x3d212918	0.03934583
15	0x00000000	0.0
16	0x3d0f0cae	0.0349242
17	0x00000000	0.0
18	0x00000000	0.0
19	0x00000000	0.0
20	0x00000000	0.0
21	0x00000000	0.0
22	0x3edccd0c	0.43125188
23	0x00000000	0.0
24	0x3e68e408	0.22743237
25	0x00000000	0.0
26	0x3e3af47f	0.1825733
27	0x00000000	0.0
28	0x3d292cc8	0.041302472
29	0x00000000	0.0
30	0x3d30d2f7	0.04316994
31	0x00000000	0.0
32	0x3d212918	0.03934583
33	0x00000000	0.0
34	0x3d0f0cae	0.0349242
35	0x00000000	0.0

fc_layers.1.running_var f4 [36]
0	0x3e60bba3	0.21946578
1	0x3e5d816e	0.21631405
2	0x3e6a5755	0.22884877
3	0x3df53b2f	0.11974179
4	0x3df9520c	0.12173852
5	0x3dee012e	0.11621319
6	0x00000004	6e-45
7	0x3e38ef11	0.18059947
8	0x3e663b67	0.22483598
9	0x00000004	6e-45
10	0x3e3466c2	0.17617324
11	0x00000004	6e-45
12	0x3dd71a48	0.105030596
13	0x00000004	6e-45
14	0x3d1a88ce	0.037728123
15	0x00000004	6e-45
16	0x3d0a029e	0.033693902
17	0x00000004	6e-45
18	0x00000004	6e-45
19	0x00000004	6e-45
20	0x00000004	6e-45
21	0x00000004	6e-45
22	0x3e7aba12	0.24485043
23	0x00000004	6e-45
24	0x3e33cc74	0.17558461
25	0x00000004	6e-45
26	0x3e18f708	0.14937985
27	0x00000004	6e-45
28	0x3d22576c	0.039634153
29	0x00000004	6e-45
30	0x3d294b68	0.04133168
31	0x00000004	6e-45
32	0x3d1a88ce	0.037728123
33	0x00000004	6e-45
34	0x3d0a029e	0.033693902
35	0x00000004	6e-45

fc_layers.2.weight f4 [128, 36]
0	0x3f5f0aee	0.8712605
1	0x3e528c17	0.20561253
2	0xbf22b9db	-0.6356484
3	0xc0d56917	-6.6690784
4	0xbf70a8f4	-0.940078
5	0x3f0c74f4	0.54865956
6	0xc00c6f79	-2.1943038
7	0x3fecc68b	1.849809
8	0xbf2e3ae8	-0.68058634
9	0xbe8f435b	-0.27981076
10	0xbf2f8dcc	-0.6857574
11	0xbfce8def	-1.6137065
12	0xbec0b3b9	-0.37637118
13	0xbf536ea9	-0.8259073
14	0x3f4686bc	0.7754934
15	0x3ea7b2e8	0.32753682
16	0xc0eb35e8	-7.3503304
17	0xbec85d4c	-0.3913368
18	0xbdde16c4	-0.10844186
19	0x3fb2e20a	1.3975232
20	0xbe82eb20	-0.2557001
21	0xbe132f53	-0.14373522
22	0xbf9b09f3	-1.2112411
23	0xbf1f74d1	-0.6228762
24	0xbf515e61	-0.81784636
25	0x3f1649e9	0.5870653
26	0xc09ff454	-4.998575
27	0x3e15b933	0.14621429
28	0xc090f8ab	-4.530355
29	0xc00493a6	-2.0715117
30	0x3efa068d	0.48833123
31	0x3ff5dc61	1.9207879
32	0x3f7a3e9a	0.9775177
33	0x3e9680b7	0.29395077
34	0xc0e74e6a	-7.228322
35	0x3f45c704	0.772568
36	0xbff731c9	-1.9312068
37	0xc0252b59	-2.5807707
38	0x400c6f61	2.194298
39	0xbeec79b2	-0.46186596
40	0x40b0a4e1	5.520127
41	0xc06a81c2	-3.6641698
42	0xbfc08d18	-1.5043058
43	0x3eac0b86	0.33602542
44	0x3f10663c	0.56406
45	0xc0c7c878	-6.2432213
46	0xc052dfda	-3.2949128
47	0xc097972f	-4.737205
48	0x4020eee2	2.5145802
49	0xc07d4df3	-3.9578826
50	0xc07ae504	-3.920228
51	0x40c04e85	6.009585
52	0x3efce53e	0.49393648
53	0xc0d0d362	-6.5258036
54	0x40ced8f9	6.463986
55	0x40a3cfaf	5.119102
56	0xc0d0bba3	-6.522905
57	0xc0d6ed13	-6.7164397
58	0xc08c8782	-4.3915415
59	0xc0ba7c3b	-5.827665
60	0xbf549ec7	-0.83054775
61	0x40b254b6	5.5728407
62	0x403efe84	2.9842844
63	0xc0c681c3	-6.20334
64	0xc052fe5b	-3.2967746
65	0xbfe90585	-1.820481
66	0xbfc25fdd	-1.5185505
67	0x40b6bc04	5.710451
68	0xc04d0f75	-3.2040684
69	0x40d82865	6.754931
70	0x3fce7ed4	1.6132455
71	0x403db143	2.9639442
72	0xc0b5a545	-5.6764245
73	0x3f02131c	0.5081041
74	0x4017c012	2.371098
75	0x3f5063a0	0.81402016
76	0x40203dc4	2.5037699
77	0xbf28e320	-0.65971565
78	0x40cf3949	6.475743
79	0xbe7b73b0	-0.2455585
80	0x3e85971a	0.26091844
81	0xc0ec207e	-7.3789663
82	0xbf38ccda	-0.7218758
83	0xc083dd1e	-4.120742
84	0x4102ffeb	8.18748
85	0xc04398d8	-3.0562038
86	0xc0e5c5ca	-7.180394
87	0x40c69f79	6.206967
88	0x4014f369	2.3273566
89	0xc0e1a8a5	-7.0518365
90	0x41000f81	8.003785
91	0x40acfb2b	5.40566
92	0xc0e531bb	-7.1623206
93	0xc10360e6	-8.211157
94	0xc009da03	-2.1539314
95	0xc0c15b5c	-6.0424023
96	0xc0270676	-2.6097693
97	0x40b053d0	5.510231
98	0x3fc533f7	1.5406483
99	0xc10633c4	-8.387638
100	0x3f07994d	0.52968293
101	0x40a688d7	5.204204
102	0x4118f78b	9.560435
103	0x40d56b9e	6.669387
104	0xc10cb7b4	-8.794849
105	0x40f9cdcc	7.8063717
106	0x40074942	2.1138463
107	0x3e6c14fc	0.2305488
108	0x3d5aa0a5	0.05337586
109	0xbf5f23b2	-0.8716384
110	0x4004f670	2.0775414
111	0xc0d525f6	-6.660884
112	0xc026ba3e	-2.6051173
113	0xbfa2245b	-1.2667345
114	0xc083409c	-4.101637
115	0x40a4a2d2	5.1448755
116	0x3f0b1d3e	0.54341495
117	0xbff34b80	-1.9007416
118	0xc06599ca	-3.5875115
119	0xc0b42247	-5.6291842
120	0xc098a6d7	-4.770366
121	0xc0b1ea49	-5.5598493
122	0x4049d919	3.1538756
123	0x3feca118	1.8486662
124	0x3e6e728d	0.23285885
125	0xbfdc8d11	-1.723055
126	0x3fa05fbf	1.2529219
127	0x40a8c460	5.2739716
128	0xbfabcb99	-1.3421508
129	0xbfa3f7b7	-1.2809972
130	0x40c77acb	6.2337394
131	0xc0524caf	-3.2859304
132	0xc0682461	-3.6272204
133	0x405717c6	3.360826
134	0xc07300c9	-3.796923
135	0xbe826ec1	-0.25475124
136	0x40c65272	6.197564
137	0xc08c6d37	-4.388332
138	0xc023fa3e	-2.5621486
139	0x409ed9dc	4.964094
140	0x40e08531	7.0162587
141	0x3fe49aca	1.7859738
142	0x3f64090e	0.89076316
143	0x40a4a0f7	5.144649
144	0x3ed3e980	0.41389084
145	0xc0e587e1	-7.172837
146	0x40bb43e3	5.852037
147	0x3f09fe90	0.53904057
148	0xc02a9b8d	-2.665744
149	0x3ec32194	0.38111556
150	0xc0407982	-3.0074162
151	0x40671784	3.6108103
152	0xbf963c11	-1.1737081
153	0x402f5f9b	2.7402103
154	0x3ed77bc0	0.420866
155	0x3f8182ec	1.0118079
156	0xc09172fb	-4.5452857
157	0x3f96fe67	1.1796387
158	0x3ff70d0c	1.9300857
159	0xc02cc03b	-2.6992328
160	0xc0c8838c	-6.266058
161	0x402c4d9e	2.6922374
162	0xc043736b	-3.0539196
163	0xc019ad1e	-2.4011912
164	0x4031cd6e	2.7781634
165	0x40586eb3	3.3817565
166	0x408c0a75	4.3762765
167	0x40234bae	2.5514941
168	0xbff8be6b	-1.9433111
169	0xc019a2ee	-2.4005694
170	0xbe8c5dbd	-0.27415267
171	0x40762454	3.8459673
172	0xbf09c340	-0.5381355
173	0xc032e507	-2.7952287
174	0xc01f830f	-2.4923742
175	0xbfecfc99	-1.8514587
176	0x403580ea	2.8359933
177	0xc0454875	-3.0825474
178	0xc0a1f532	-5.061181
179	0x3eae1b98	0.34005427
180	0xc0940945	-4.6261315
181	0xbf9d5ae1	-1.2293359
182	0x40a981ab	5.2970786
183	0xc05c864d	-3.445697
184	0x400a4667	2.160547
185	0xbefdbe1f	-0.49559113
186	0x40003e6b	2.0038097
187	0xbf9b153e	-1.2115858
188	0xbda9dcaf	-0.08294045
189	0xc06c1d30	-3.6892815
190	0xbee65b48	-0.44991517
191	0xc007c745	-2.1215374
192	0x407a411e	3.9102244
193	0xbfb5a6e6	-1.4191558
194	0x3eca16c2	0.39470488
195	0x405c4674	3.4418
196	0xbe3a4f1f	-0.18194245
197	0xc074b32a	-3.8234353
198	0x4081e1c7	4.0588107
199	0x40209b96	2.5094962
200	0xc083fd64	-4.1246815
201	0xc0836e03	-4.107179
202	0xbfca98e7	-1.5827912
203	0xc03e2034	-2.9707155
204	0x3dc91ecc	0.09820327
205	0x40373443	2.8625648
206	0x3fa0b810	1.2556171
207	0xc0943a4e	-4.6321173
208	0xbec04e32	-0.37559658
209	0x400b48aa	2.17631
210	0x4038cad3	2.8873794
211	0x4045424f	3.0821722
212	0x3feda5c8	1.8566217
213	0x4080f9a7	4.030475
214	0xbf64cf71	-0.8937903
215	0xbc8dea16	-0.017323535
216	0x3ffe1ebb	1.9853128
217	0xc030baee	-2.7614093
218	0x40354494	2.8323107
219	0xc1028789	-8.15809
220	0xc0064d2f	-2.098461
221	0x3ff39ed7	1.9032849
222	0x3ff642eb	1.9239172
223	0xbfb47901	-1.4099427
224	0x3fb9ad5e	1.4506032
225	0x3f8ac2b2	1.0840666
226	0xbee0d056	-0.43908948
227	0x40226206	2.5372329
228	0x3f61294f	0.87953657
229	0x4027c6f3	2.621518
230	0x3fb10917	1.3830899
231	0xbf93786d	-1.1521126
232	0x4029be15	2.6522267
233	0x3f7869b4	0.9703629
234	0xbf445a7d	-0.76700574
235	0xbff23e1d	-1.8925205
236	0x3f5c441a	0.86041415
237	0x3f4fac77	0.81122535
238	0xc0091112	-2.141667
239	0x3f9d94fb	1.231109
240	0x402aaf21	2.666939
241	0xbf9e8fd4	-1.2387643
242	0x3e69fb1f	0.22849701
243	0x3f026719	0.50938565
244	0xc0f547d5	-7.6650186
245	0x40072c41	2.112076
246	0xbf7caeac	-0.9870403
247	0xc00b8aee	-2.1803546
248	0x40158470	2.3362083
249	0xbf6840a1	-0.90723616
250	0x40212198	2.5176754
251	0xc022b29f	-2.5421522
252	0x3f812bbe	1.0091474
253	0xbf572a6b	-0.840491
254	0xbe5f4b93	-0.21806173
255	0xc0f62f7c	-7.6932964

fc_layers.2.bias f4 [128]
0	0x3f599541	0.8499337
1	0xbff81480	-1.9381256
2	0xc04ca1d0	-3.1973763
3	0xbfffd8b2	-1.9988005
4	0x3e6e976d	0.23299952
5	0xbd9f47f6	-0.07777397
6	0x3ff6bb6c	1.9275947
7	0xbd35049f	-0.04419386
8	0xbfae02cf	-1.3594607
9	0xbf89c824	-1.0764203
10	0x3f848682	1.0353549
11	0x3e84db58	0.25948596
12	0x40096779	2.1469405
13	0x4010639c	2.2560797
14	0x3fe753a3	1.8072399
15	0x3f71071b	0.9415147
16	0x3fc58f07	1.5434273
17	0x3de83999	0.11339111
18	0x3fd2ca9c	1.6468081
19	0x3e5bda60	0.21470022
20	0x3e68fc9b	0.22752611
21	0x3fe3ded8	1.7802382
22	0xbde3daa2	-0.11125685
23	0xbfe6355e	-1.7985036
24	0x3f6af26b	0.9177615
25	0xbfc7fc58	-1.5623884
26	0xc067463b	-3.6136615
27	0xbe84e5f8	-0.25956702
28	0xc05ad03c	-3.4189596
29	0xbf7eb182	-0.99489605
30	0xbf690c16	-0.91034067
31	0x3f95de47	1.1708459
32	0x3fe3dbdd	1.7801472
33	0x3f5b8adf	0.85758775
34	0x3f886230	1.0654964
35	0x3f8239af	1.0173854
36	0x3f847ced	1.0350624
37	0xbcde4bbe	-0.027135726
38	0xc01ae341	-2.4201205
39	0xbfe42335	-1.7823244
40	0x3f5cce2b	0.8625209
41	0x3f58b04d	0.84644014
42	0x3f68fe10	0.9101267
43	0x3f68c5d7	0.9092688
44	0xc00a6921	-2.1626666
45	0x3fe5340f	1.7906512
46	0xbef85b55	-0.4850718
47	0xbe89b49b	-0.26895604
48	0x3e785730	0.2425201
49	0xbed7b3f7	-0.4212949
50	0xc09c4923	-4.883928
51	0xbf092483	-0.5357134
52	0xbccf0142	-0.025269154
53	0xbf2877ce	-0.6580781
54	0xbfd25234	-1.6431336
55	0xbe733810	-0.23751855
56	0x404576b6	3.0853705
57	0xbf857a97	-1.0428036
58	0x3f8fcd13	1.1234459
59	0xc075a7e1	-3.8383715
60	0x3eef9119	0.46790388
61	0xc002d8a1	-2.044472
62	0x40105624	2.2552576
63	0x3fb3d324	1.404881
64	0xbff63f7f	-1.9238127
65	0xbeeb8c7c	-0.4600562
66	0x3ddfba42	0.10924198
67	0xbf76c415	-0.9639295
68	0xbfe50f6a	-1.7895329
69	0x3f8124cf	1.0089358
70	0xbf67c5bb	-0.9053609
71	0xc0436888	-3.053255
72	0x404b9e52	3.181538
73	0xbfaebdee	-1.3651712
74	0xbfddcc6f	-1.7328013
75	0x3fe270e7	1.7690705
76	0xbef05c87	-0.46945593
77	0xbf8c53c4	-1.0963063
78	0xc0100d4e	-2.250812
79	0x4058dcf8	3.3884869
80	0x400eeeee	2.233333
81	0x3fffb359	1.9976608
82	0xbf726b3e	-0.9469489
83	0xbff878a1	-1.9411813
84	0x3e911f85	0.2834436
85	0xbfabadac	-1.3412375
86	0xc05ceadb	-3.4518344
87	0x400cf7de	2.2026286
88	0xc0a7f529	-5.248677
89	0xc05f1c67	-3.4861085
90	0xbf21d4bf	-0.6321525
91	0xc03eac8b	-2.9792812
92	0x40378fb0	2.868145
93	0xbf0770a8	-0.52906275
94	0x3ebc20ac	0.36743677
95	0xc036b671	-2.8548853
96	0xc0700d87	-3.7508256
97	0x40674bef	3.6140096
98	0xbfdfd3b5	-1.7486483
99	0xc00d1fac	-2.205058
100	0x3eec7635	0.46183935
101	0x3f9a373b	1.2048105
102	0x400cb42d	2.198497
103	0x404dbd7a	3.2146897
104	0xbe89bd6c	-0.2690233
105	0xc02f5059	-2.739279
106	0x3e9de2c0	0.3083706
107	0xbf9eced8	-1.2406874
108	0xbfd172fd	-1.6363217
109	0xbfa17ba4	-1.2615857
110	0xc02c9100	-2.69635
111	0xbec1e4db	-0.37869915
112	0xbfbb6da5	-1.4642836
113	0xc011ec67	-2.2800539
114	0xc0199077	-2.3994424
115	0xc007ca1e	-2.1217113
116	0xc005c449	-2.0901053
117	0xbf1037a6	-0.5633491
118	0xc07027d4	-3.752431
119	0x3f8aa019	1.0830108
120	0x3fd174e9	1.6363803
121	0xbf2e2981	-0.6803208
122	0xbf0ede01	-0.558075
123	0x3fd3f8cf	1.6560305
124	0xc0801c94	-4.0034885
125	0x3eddb06e	0.43298668
126	0xbf1c6760	-0.6109524
127	0x3dfa556e	0.12223326

fc_layers.4.weight f4 [128, 128]
0	0xc087a557	-4.238933
1	0x4036c3e0	2.8557053
2	0x40da6955	6.825358
3	0xc053bffc	-3.3085928
4	0xbff9acae	-1.9505823
5	0x40a8b168	5.271656
6	0x4049753e	3.147781
7	0x3fb08d30	1.3793087
8	0x40327377	2.7882974
9	0x407aa135	3.9160893
10	0x40f663ae	7.699668
11	0xc0851868	-4.1592293
12	0x3d83d080	0.064362526
13	0xc02b345b	-2.6750705
14	0xbe93450e	-0.28763622
15	0xc05e50ce	-3.473682
16	0x3fa3b5d9	1.278987
17	0x3f0025a9	0.50057465
18	0x40031e54	2.048726
19	0x3eff55b5	0.49870077
20	0xbff8d74f	-1.9440707
21	0x3f9a089e	1.203388
22	0xc0ff8ae1	-7.985703
23	0xbfacd3a5	-1.3502089
24	0x401b0a4c	2.4225035
25	0x40344480	2.816681
26	0x40638ae7	3.555353
27	0x3f5ab0f3	0.85426253
28	0x3ea4dddd	0.32200518
29	0x40a23493	5.0689178
30	0x3fd8181a	1.6882355
31	0xc0a079cf	-5.014869
32	0xc10ce8f4	-8.806873
33	0xc01cd918	-2.4507504
34	0xc038e14f	-2.8887517
35	0xbdb0e434	-0.08637276
36	0xbee07fe0	-0.4384756
37	0xc122fd59	-10.186852
38	0xc018e252	-2.3888135
39	0xc117aa90	-9.479141
40	0xc12e7a73	-10.904895
41	0xc0a843e8	-5.2582893
42	0xc0600654	-3.5003862
43	0x40167dba	2.3514237
44	0x4023ac27	2.5573823
45	0x411d411d	9.828397
46	0x40c8b4ab	6.272054
47	0xc0060fca	-2.0947137
48	0xc0d4d48d	-6.650946
49	0xbf488afb	-0.7833707
50	0x404988dc	3.1489782
51	0xbf7c40ee	-0.98536575
52	0xbe7fb323	-0.24970679
53	0xbf95a3b8	-1.1690588
54	0x3e3ffc80	0.18748665
55	0x4060ce4d	3.5125916
56	0x3f084c6e	0.5324162
57	0x4075c89c	3.8403692
58	0xbfa8f87c	-1.3200831
59	0x3fd0310c	1.6264968
60	0x3f4e6480	0.806221
61	0x4075cc47	3.840593
62	0xc00b8043	-2.1797035
63	0xc0c298cd	-6.0811524
64	0x40b4d03b	5.6504188
65	0xbfae07eb	-1.3596166
66	0xbfc6aae5	-1.5520903
67	0x4094c72a	4.649312
68	0xbfe566ab	-1.7921957
69	0xc0896cc3	-4.2945266
70	0xc0088d7f	-2.1336362
71	0x3e9fae6e	0.31187767
72	0xc0df27a1	-6.9735875
73	0x3f55cc47	0.8351483
74	0xc0fcaf96	-7.896434
75	0xbfbf36af	-1.4938563
76	0xbf771760	-0.9652004
77	0x408b7a53	4.358682
78	0x403fed2e	2.9988513
79	0xc04c1fda	-3.189444
80	0x3fbc29e6	1.4700286
81	0x3fe28377	1.769637
82	0xc04ab760	-3.1674423
83	0xbf284f71	-0.6574622
84	0xc018d8b9	-2.3882277
85	0x3fac77b4	1.347403
86	0x40524f80	3.2861023
87	0xc0819700	-4.0496826
88	0x40b39791	5.6122518
89	0x3f146571	0.5796729
90	0x3fdebaf4	1.7400804
91	0x3ef2ca74	0.47420084
92	0xbfbb3f18	-1.462863
93	0x408afd82	4.343446
94	0xc0a1352f	-5.037742
95	0xbf47021a	-0.7773758
96	0x3f4f479d	0.8096865
97	0xbf93bb2b	-1.1541494
98	0xbfd5cd11	-1.6703206
99	0xc00cf384	-2.202363
100	0x400e74a5	2.2258694
101	0xc0bbe419	-5.871594
102	0x4099e32f	4.8089824
103	0xc00784bf	-2.1174772
104	0x3ea331da	0.3187397
105	0xbf2bb7f5	-0.6707757
106	0xbffdf6db	-1.9840959
107	0x40807cee	4.01525
108	0xbead1560	-0.3380537
109	0xbff24c69	-1.8929569
110	0xc0aec4c4	-5.4615192
111	0x40b15c53	5.54252
112	0xbec71df5	-0.38890043
113	0xc00a5cb3	-2.161908
114	0x40999554	4.7994785
115	0x400b9959	2.1812346
116	0x3f7383c7	0.9512295
117	0xbf21c283	-0.63187426
118	0xbd154d55	-0.036450703
119	0xc1032c50	-8.1983185
120	0xbf320e6d	-0.6955326
121	0xc011bf7f	-2.277313
122	0x404c461e	3.1917796
123	0x3e660f43	0.2246676
124	0x400aa7b1	2.166485
125	0x3ee39a03	0.4445344
126	0xc0500840	-3.2505035
127	0x400b8b64	2.1803827
128	0xbf8ce1a1	-1.1006356
129	0xbe955e4d	-0.29173508
130	0x3e945eaf	0.28978488
131	0x3fed796f	1.8552684
132	0xc095e9b8	-4.68478
133	0xc0702f22	-3.7528768
134	0xbf2e292a	-0.6803156
135	0xc03f237e	-2.9865413
136	0x40db94c6	6.861911
137	0xc0c99f1c	-6.3006725
138	0xc08e4709	-4.4461713
139	0xc0bf1a08	-5.9719276
140	0x3e467a64	0.19382626
141	0xc06441a1	-3.5665057
142	0xc03b1595	-2.9231923
143	0x3f3e374a	0.74303114
144	0xbfa2ffb1	-1.2734281
145	0xc0079ba6	-2.118875
146	0xbe8005a3	-0.250043
147	0xc07b4a22	-3.9263997
148	0xbfcf1260	-1.6177483
149	0xc016d41e	-2.3566966
150	0xbea950a8	-0.33069348
151	0x3f100481	0.5625687
152	0x4086b53b	4.209623
153	0x3fa62c58	1.2982283
154	0x4050531e	3.255073
155	0x408079da	4.0148745
156	0x40fc1a03	7.8781753
157	0x3f22bec7	0.63572353
158	0x3ef2116c	0.47278917
159	0xbf3ab941	-0.72938925
160	0xc084eb26	-4.1537046
161	0xc083ab58	-4.114666
162	0x3fa6d989	1.3035136
163	0x400cd356	2.200399
164	0xc0c04be7	-6.0092654
165	0xbfbb1f60	-1.461895
166	0x400488d5	2.0708516
167	0xbf18ceb4	-0.59690404
168	0xbfa5121a	-1.2896149
169	0x407c24aa	3.9397378
170	0xc07e2ab9	-3.9713576
171	0xbeff41fe	-0.49855036
172	0x3f8b0e3d	1.086372
173	0x3f4f61e4	0.81008744
174	0x4026523e	2.5987697
175	0xbf0870bb	-0.53297013
176	0xc056baf5	-3.355161
177	0x408c59b1	4.3859487
178	0x3f1e0a3d	0.6173437
179	0x3fcc14b1	1.5943815
180	0x405e3000	3.4716797
181	0x4000ed98	2.0145016
182	0x407690ab	3.8525798
183	0x4001f840	2.030777
184	0xc081e1f3	-4.0588317
185	0x4013cffe	2.3095698
186	0xbfe7c5ad	-1.8107201
187	0x3fe7b30a	1.8101513
188	0xbebc78f1	-0.3681102
189	0xc072926f	-3.7901876
190	0xbf250fea	-0.6447741
191	0xbf96abfc	-1.1771235
192	0xc0646c67	-3.5691164
193	0x40d0d760	6.526291
194	0x3f4c0d85	0.7970813
195	0xbfebfa2c	-1.8435721
196	0xc0213626	-2.51893
197	0xbf8c38a6	-1.0954788
198	0x3ec503c2	0.3847943
199	0xc036426f	-2.8478048
200	0x40b28792	5.579049
201	0xc081cac0	-4.0559998
202	0xbeac1241	-0.33607677
203	0xbfb86abd	-1.4407574
204	0xbf8db096	-1.1069515
205	0x402a4f7a	2.6611009
206	0x3faa623d	1.331123
207	0xbfb04774	-1.3771806
208	0xbc3ee440	-0.011651099
209	0x40292308	2.6427631
210	0x4014a6de	2.3226848
211	0xbf2eef67	-0.6833405
212	0x40939a3e	4.6125784
213	0xc06b9cd3	-3.6814468
214	0x3fe10c18	1.7581816
215	0xbc928372	-0.017884944
216	0xbf859d0d	-1.0438553
217	0x3f561a0e	0.83633506
218	0x3f545bf6	0.8295282
219	0xc02b0193	-2.671971
220	0xbf6956a6	-0.9114784
221	0xbe2e537c	-0.17024034
222	0xc0a1afaf	-5.0526958
223	0x40a3d7e9	5.120106
224	0x3f83718c	1.0269027
225	0xc0882ca9	-4.2554517
226	0x3de3a89f	0.11116146
227	0xc04f4734	-3.238721
228	0x3f3b6a12	0.73208725
229	0xbfcacf41	-1.5844499
230	0xbfe5b033	-1.7944397
231	0xbf0eee15	-0.55832034
232	0xc017bf76	-2.3710608
233	0x4020d5a3	2.5130394
234	0x4080ccf1	4.0250173
235	0x40bd15af	5.908897
236	0x3faa8867	1.3322877
237	0x40b13214	5.537363
238	0x3f9b1b65	1.2117735
239	0x401688c8	2.3520985
240	0xbf033031	-0.5124541
241	0x3fa36338	1.2764654
242	0x3fb3835c	1.4024463
243	0x40854a70	4.1653366
244	0xbfe6b270	-1.8023205
245	0x4043673b	3.0531757
246	0x4102bd1d	8.17117
247	0xbf35e9f8	-0.71060133
248	0x3ef30b68	0.4746964
249	0xc0148639	-2.3206923
250	0x40cd0b32	6.4076166
251	0xc03a3a06	-2.9097915
252	0x40822b65	4.067797
253	0xbf6e68a4	-0.9312842
254	0xc0480152	-3.1250806
255	0x3f15b45a	0.5847832
